simulation_codes_and_data/red_noise_phi092/deseasonalized/deseasonalized2.5_corr_eco_model_planktivores_sig_0.1phi0.92ppyear50.npy (npy, 64128 bytes, 1 tensors)

array f8 [8000]
0.145214681092916 -0.1671107482476789 0.08256673529393543 -0.08870547082455116 0.04618600690059527 -0.037886553045677354 0.020594917743003913 -0.013344225324590508
0.006801075850291716 -0.00381763434156962 0.0018301932816962851 -0.0011441373930881349 0.0004691813812961465 -0.00027525864268596045 -0.0004645324213199131 -4.973696539739558e-05
-0.0003063296397153026 -0.0004664086499444886 -0.00032524448391965666 -0.0001790354968719543 7.403406491682252e-05 -0.0001344554112958085 -5.3661578433172874e-05 -0.0001393914282050157
-0.00044552861130736643 -0.00042656591642289965 -0.0003071397248238239 -0.00010223682517970789 -0.0004869010343768465 -0.0005536368870985853 -0.0003603018973468153 -0.000428300484532379
0.00014449959884099695 0.00010984397964572401 0.000202445049398009 2.2918821012296586e-05 -0.00011632639255154675 -6.031933152347846e-05 -0.000537059775205434 -0.0006698587448284443
-0.0007622976868920939 -0.00016818823591274734 0.00014151851428206852 0.0006716366242474625 0.000707155783109592 0.0023849431108119434 0.008352640321262594 0.019236262288235773
0.03752112527832846 0.06314623333119296 0.09368599791978119 -0.20206491534059953 0.06606960477117388 -0.09849252387524118 0.043651878319662774 -0.04001398647209309
0.020964533483009307 -0.013911309946214812 0.0075849852536741535 -0.004199946371514218 0.0015366702882386174 -0.00026296624915919664 -0.00028357149229213396 -0.0004901800777339371
-0.0008204787865673802 -8.189121346793837e-05 0.00013598238433035204 0.0003023635337977837 -6.662764238538066e-05 -0.00025400557979851635 -0.00042668296889689095 -0.0001527213313654019
9.954611249959888e-05 -0.00018333932585476442 0.00015452370544771776 -0.00028789944883170215 -0.00025848075628023826 0.0002635239142667889 4.174933196487984e-06 -0.0008107575530613143
-0.0003222253008023368 -0.0003358603959372486 -0.00030358112121919856 -0.0003009981302181941 -0.00032654762900968803 -0.0002874045943859205 -0.0006946371444102872 -0.0007179018276034788
-0.0002925308485262623 0.0003683270450713372 0.00021715070772551637 -0.0006933527108126669 -0.0011851475965597436 -0.000342399602614174 0.0010298148782276195 0.0033788703732465786
0.009408306651951026 0.02058960627508044 0.03847939599994893 0.06508819798994242 0.09760826874279521 -0.20893600269297347 0.06709284107109176 -0.10054943681118753
0.04390351469748924 -0.03955930111439877 0.020449367069257735 -0.013707582866143653 0.007053975361492437 -0.003734111434097631 0.0013072754713417956 -0.000477934760071963
0.0002450400648881801 -0.0006180042830513377 -0.000140093192872226 2.0633836265215866e-05 -0.0005087901460190392 5.519957712027401e-05 -0.0005544157860314924 -0.0002494681472356153
-0.000750546818249237 5.735270644474655e-05 3.052265320691028e-05 0.0002754769828318404 -0.000512705142736436 -0.0006887701574190275 -0.0002623142732371686 -0.0002843651777582612
-0.0005466452618302087 -0.00036804283664967907 -0.00020951044415248865 -0.00018682859959848197 -0.00026196397674552174 0.00029599213403389 -0.00024811274058658683 -0.0003361817187459981
-0.0002816519897294867 -0.000713263867596764 -0.0002884926848317759 -0.000303783136951008 -0.0005588746621982277 -0.000317836881219391 -6.949212345935818e-05 0.00027321976835897877
0.0010206727596119292 0.0035752982404343436 0.009178141285845154 0.02053706446434478 0.03975508483088597 0.0667792158837539 0.09908150540418104 -0.2123758547458361
0.06655311550415643 -0.09987838952483175 0.04210978516491265 -0.03786897129116665 0.018365307640993922 -0.012375729968901253 0.00629558609883174 -0.0031062033388815635
0.0013611438642041618 -0.0014421557820834818 -1.3191541387236327e-05 -0.0006942076691517085 -8.888259981973401e-05 -0.0003645830206971956 7.95842737183472e-06 6.982637906088884e-05
-0.00048151230636692133 -0.0007720393227456102 -7.131435195692482e-05 -5.2989368895250966e-05 0.0002353498292770595 -0.0001594859008796634 0.00025845390181028494 -0.00010786199265486185
-0.0003635385059236329 -7.305560504966557e-05 -0.00032169891121452965 8.730142746080083e-05 -0.00027406345493127815 -0.00030996557004570047 -0.0005133175502300968 -6.205267462888742e-05
-0.00034805296141712794 -0.000949638889119031 -0.0007027138604281391 -0.00040705569191185065 -0.00023100037678119856 -0.0003453846478584932 0.00014590170633371757 -0.0004449892295267932
-0.0004152722525699315 5.684835983998937e-05 0.0009177019975750156 0.003560248632837437 0.009242589377115806 0.020881149497913754 0.03985942026756489 0.06709554918609206
0.10030450352648537 -0.21253331351054794 0.0644203269694997 -0.0983543431630313 0.0399166987952011 -0.036829451845005995 0.017534161795897896 -0.011275802098126994
0.005287109965882275 -0.0027782692859600333 0.0009014153249712331 -0.0011142469629953078 -2.7265142695631628e-05 7.932428811699421e-05 4.8018986151615595e-05 7.808918187746094e-06
-0.00018216913704133253 -0.0003419892925069501 -0.00018273980681629554 -0.00034468863290482155 -0.0007580115300188095 -0.0002564638352019477 -0.00030812213836373115 -0.00022770036868610677
0.00019387906257256615 -7.863080022649238e-05 -0.000306849268975784 -0.0005242557032613115 -0.0001141290475446255 0.0002623133816290757 0.00012359305417866673 -0.00023868243251606858
-0.0006925969400237708 -0.00032247027750925694 0.00010453773671331712 0.00010024905683206353 -0.0001913787863176697 -0.0003092620952418468 -0.0008612040473139904 -0.000650873448221817
-0.00048609001128108176 -0.0003276507705806675 -0.000516717295484248 -0.0005169995913962278 0.0003659414572768638 0.0031317633184138605 0.009777561978167426 0.021859151415081157
0.04121961956358655 0.06847709347939776 0.10210513954582953 -0.21520429040238204 0.06308636754415911 -0.09759784301954988 0.03800998394749561 -0.03571125269033333
00000000: efb8 1809 6596 c23f dc55 448f e263 c5bf
00000010: 602f d3f3 1723 b53f 50f0 2ad8 66b5 b6bf
00000020: 807e 573a b1a5 a73f 2226 94c4 dd65 a3bf
00000030: 9c17 ae88 d516 953f e066 e09a 3754 8bbf
00000040: 4084 ace5 71db 7b3f 80e3 a4d4 2846 6fbf
00000050: 805d 9312 63fc 5d3f 8051 de2b dcbe 52bf
00000060: 0068 45b0 8ebf 3e3f 0070 47de 120a 32bf
00000070: 005e b88e 8f71 3ebf 0020 471e 9513 0abf
00000080: 00a6 ccc8 5b13 34bf 00c6 e8e5 0991 3ebf
00000090: 008e f06b b250 35bf 00d4 3035 6f77 27bf
000000a0: 0008 e98c 5768 133f 0038 4630 939f 21bf
000000b0: 00e0 9dcb 5522 0cbf 0058 3f40 3345 22bf
000000c0: 00ac a3d0 ba32 3dbf 00b2 1ea9 96f4 3bbf
000000d0: 00b4 cb12 f320 34bf 00b8 4948 ffcc 1abf
000000e0: 009e df04 d8e8 3fbf 001e 7729 3e24 42bf
000000f0: 0080 a4dd dc9c 37bf 00ea ec92 b011 3cbf
00000100: 00f0 441a 9af0 223f 0058 7233 81cb 1c3f
00000110: 00fc 98bb ed88 2a3f 00c0 2a63 3908 f83e
00000120: 0020 e934 887e 1ebf 0030 1e73 ec9f 0fbf
00000130: 0017 d315 2f99 41bf 0002 74b3 2ef3 45bf
00000140: 0045 48d1 9dfa 48bf 0018 15f2 750b 26bf
00000150: 0058 ffc7 928c 223f 000a 00ab 1802 463f
00000160: 00ca 167b 0d2c 473f 0081 3d95 9689 633f
00000170: 00df 1e68 301b 813f f074 b3b5 abb2 933f
00000180: 3886 f50b f835 a33f 30e7 05ff 592a b03f
00000190: fa98 2839 cefb b73f f747 875d 43dd c9bf
000001a0: 6a78 c007 f0e9 b03f 3ed5 f158 ce36 b9bf
000001b0: f076 95fb 8959 a63f d079 8f96 b67c a4bf
000001c0: 40df bd06 ba77 953f 40ac 1b6a 887d 8cbf
000001d0: a0c9 aef9 6e11 7f3f 803f f884 f633 71bf
000001e0: 007b 7e28 432d 593f 00c6 a970 d73b 31bf
000001f0: 00bc 1449 8a95 32bf 0018 96b3 ed0f 40bf
00000200: 0052 16c7 ace2 4abf 00c8 ae55 a077 15bf
00000210: 00e4 7cc9 cfd2 213f 00e2 397d d1d0 333f
00000220: 00d8 222e 4e77 11bf 002a 82a8 81a5 30bf
00000230: 0016 ad65 8df6 3bbf 0098 4a3f 7a04 24bf
00000240: 00d8 c530 6d18 1a3f 003c 36d1 d807 28bf
00000250: 0048 d085 f440 243f 00ea 9eb7 26de 32bf
00000260: 0022 1665 96f0 30bf 00f2 ee97 3245 313f
00000270: 0000 10e6 cc82 d13e 00f6 7296 2091 4abf
00000280: 00ec fe20 0b1e 35bf 0078 a46a cd02 36bf
00000290: 00f8 c0fc 3ee5 33bf 001e 1d20 e9b9 33bf
000002a0: 006c 1e63 8f66 35bf 0050 6755 d9d5 32bf
000002b0: 009f aee8 09c3 46bf 009d 866f 3286 47bf
000002c0: 0014 706d da2b 33bf 005c e19c 8023 383f
000002d0: 007c 3f60 5e76 2c3f 0022 d89b 43b8 46bf
000002e0: 0016 c38a de6a 53bf 0090 6b18 8370 36bf
000002f0: 005a 444e 5bdf 503f 003d 0438 01ae 6b3f
00000300: 0005 0c8b a944 833f 601f 5b16 7115 953f
00000310: 787b c746 92b3 a33f 9ced b8c1 9ea9 b03f
00000320: bcc9 1102 dbfc b83f 22fb 4239 6abe cabf
00000330: 4c31 3216 ff2c b13f 963a bc9e 9bbd b9bf
00000340: 743f 9c7f 857a a63f 72f2 13e1 1d41 a4bf
00000350: e83b 25cb adf0 943f 6039 f0a0 b812 8cbf
00000360: 001a c017 a1e4 7c3f 0074 a6cf ff96 6ebf
00000370: 0096 5c59 1c6b 553f 0078 042a 6a52 3fbf
00000380: 0094 9d10 170f 303f 007b 9d17 3240 44bf
00000390: 0010 125d bf5c 22bf 0040 636e daa2 f53e
000003a0: 00a9 d284 0aac 40bf 00f0 2207 c3f0 0c3f
000003b0: 009e aed5 c62a 42bf 0032 a588 6159 30bf
000003c0: 007b ed04 0b98 48bf 00a0 f6fc bf11 0e3f
000003d0: 0080 e460 ae00 003f 00ea cea1 bc0d 323f
000003e0: 0096 07e9 e1cc 40bf 0042 79a6 d291 46bf
000003f0: 004e 8e39 e730 31bf 00d4 7a23 dba2 32bf
00000400: 0053 d3c2 97e9 41bf 007e 6af2 bb1e 38bf
00000410: 00ec f802 0176 2bbf 00bc 5173 ed7c 28bf
00000420: 007a 7db6 062b 31bf 00ba 1989 ec65 333f
00000430: 003a 461b a442 30bf 0094 ce7c 3108 36bf
00000440: 009e b115 5675 32bf 002d 0c7e 4a5f 47bf
00000450: 0038 80a5 1ae8 32bf 0060 66a3 a2e8 33bf
00000460: 0036 c732 2e50 42bf 0004 a302 6bd4 34bf
00000470: 0030 2197 8937 12bf 00bc 3ff8 dde7 313f
00000480: 003e d607 03b9 503f 00fd 83a0 f149 6d3f
00000490: 0043 4945 fdcb 823f c0ba eb10 ab07 953f
000004a0: 908f 654a c75a a43f 80f3 4554 7118 b13f
000004b0: 9872 59d1 675d b93f f0f4 4bcb 212f cbbf
000004c0: 088a 89fe 9f09 b13f d817 9650 a191 b9bf
000004d0: 08f1 3fec 698f a53f 441b 75d2 8f63 a3bf
000004e0: 30d3 cbee 5ace 923f c82e d85b 7258 89bf
000004f0: 8049 7586 66c9 793f 00c8 2a38 2e72 69bf
00000500: 002e 7118 0d4d 563f 80c5 ddfa d6a0 57bf
00000510: 0000 98a4 27aa ebbe 006b 299e 6fbf 46bf
00000520: 00f8 0870 cf4c 17bf 00d8 8b26 b0e4 37bf
00000530: 0080 e4ed a5b0 e03e 00d0 cf0e f84d 123f
00000540: 0086 c49b 6f8e 3fbf 00c4 3ad2 554c 49bf
00000550: 00d8 d03c d3b1 12bf 00a0 fdd9 1cc8 0bbf
00000560: 003c c5a3 07d9 2e3f 0090 f774 75e7 24bf
00000570: 00d4 480e 23f0 303f 00f8 79ec 7e46 1cbf
00000580: 0048 68fe 29d3 37bf 00c0 e7bc ad26 13bf
00000590: 00f4 854d 3615 35bf 0058 751a b3e2 163f
000005a0: 0006 7293 05f6 31bf 00b8 79fc 5b50 34bf
000005b0: 0018 9c0b 05d2 40bf 0000 28d5 4844 10bf
000005c0: 00f6 2816 5ccf 36bf 0028 63fc 251e 4fbf
000005d0: 0022 4586 ca06 47bf 00d4 68e2 42ad 3abf
000005e0: 0048 9520 1647 2ebf 0030 60c4 97a2 36bf
000005f0: 00a8 401d a61f 233f 008c 1930 ae29 3dbf
00000600: 00b4 64be 1c37 3bbf 0000 50c5 0ece 0d3f
00000610: 0060 9508 3e12 4e3f 0082 32ee 612a 6d3f
00000620: a02e d758 c7ed 823f 0024 c938 de61 953f
00000630: 2832 f934 7468 a43f f01f 7685 2c2d b13f
00000640: 62ab 4952 8ead b93f 044e 6ba7 4a34 cbbf
00000650: c618 88bd d97d b03f 1a06 4e0f c02d b9bf
00000660: 0083 c727 f66f a43f 9466 6856 4fdb a2bf
00000670: f094 e7ad 79f4 913f 1822 fb89 c417 87bf
00000680: 4016 4dc6 efa7 753f 0031 20f7 73c2 66bf
00000690: 0074 a1ab 9e89 4d3f 80c1 0191 7d41 52bf
000006a0: 0040 d456 ee96 fcbe 0048 99e4 5ccb 143f
000006b0: 0090 05cd ff2c 093f 0000 218b 6160 e03e
000006c0: 0038 ccf8 94e0 27bf 00b0 afd3 a069 36bf
000006d0: 0074 e7fc baf3 27bf 0050 d767 ea96 36bf
000006e0: 003a 9f5d a9d6 48bf 0098 e8c8 bfce 30bf
000006f0: 00f8 e781 6e31 34bf 00dc 0946 5bd8 2dbf
00000700: 0098 5c77 8069 293f 00f8 99dc d29c 14bf
00000710: 00a4 3693 131c 34bf 00f4 d48c c62d 41bf
00000720: 0088 5e1b 12eb 1dbf 00f0 3865 e330 313f
00000730: 0014 5d40 1833 203f 0068 cb7b da48 2fbf
00000740: 0088 759a ecb1 46bf 00cc bb4b 2722 35bf
00000750: 0010 3ba4 6867 1b3f 0048 a4ae 9947 1a3f
00000760: 005c bb41 9b15 29bf 00b0 bf95 8e44 34bf
00000770: 006a f49b 4d38 4cbf 00e9 4316 ec53 45bf
00000780: 00a0 8cb3 3cdb 3fbf 006c 1a58 1179 35bf
00000790: 0036 54f1 89ee 40bf 00d6 252b e8f0 40bf
000007a0: 0078 5c97 7afb 373f 803a 01a1 c8a7 693f
000007b0: 605d 7227 4206 843f b0ca c8d1 3e62 963f
000007c0: 4055 f5eb bc1a a53f e6e6 04fd b687 b13f
000007d0: a654 1afb 8f23 ba3f de59 9e6e d08b cbbf
000007e0: 12f4 6c9d 6d26 b03f 10da ed17 2cfc b8bf
000007f0: 78b3 f36b 0b76 a33f daef cecc be48 a2bf
