simulation_codes_and_data/red_noise_phi092/deseasonalized/deseasonalized2.5_corr_eco_model_planktivores_sig_4.5phi0.92ppyear50.npy (npy, 64128 bytes, 1 tensors)

array f8 [8000]
00000000: 3f93 36e4 c0ce b33f dcfd 94ed 3c7e bdbf
00000010: 5722 7ed6 6c9c b43f 41f1 3634 3c2e b9bf
00000020: 447b edb1 83a5 b13f 36f8 7cf2 0a79 a8bf
00000030: 0269 e354 9c54 a83f 485d 7a9c 7ee2 9ebf
00000040: a8ec b87b 4cb3 9b3f 10c5 1d52 db2d 8cbf
00000050: 809e 918b 6653 7f3f 907e ae33 d997 753f
00000060: 00c3 027d 7715 3cbf 2077 4066 64a9 713f
00000070: 986c 1461 b8a8 8d3f 1099 c45d 223a 753f
00000080: 50bd c798 87b2 92bf be8e 6b16 1443 9abf
00000090: b0fe 801b 6f72 8abf ba4f 2958 3a99 963f
000000a0: b48e 6401 72fb 973f 00e0 b690 ed68 413f
000000b0: d4d4 b058 a6f2 80bf 709d 8521 b740 6fbf
000000c0: c810 fe81 2646 90bf a404 fe25 a2d3 85bf
000000d0: 803b 2468 adaa 753f b01a 0dda 4186 6dbf
000000e0: 20da d401 4c33 603f b85a e93e fa35 81bf
000000f0: b879 4513 1265 87bf e065 8403 8470 98bf
00000100: 609e daa3 c301 97bf a0a2 a1f9 914d 73bf
00000110: 8838 6116 936b 913f 703f a431 55d8 933f
00000120: 0020 3450 623f 963f 80e1 c5c2 bcb9 803f
00000130: 40b6 083c 58aa 6dbf e018 4a8f f389 873f
00000140: a046 2cf3 9bed 7b3f 0007 5079 868c 44bf
00000150: 2010 629d e4ea 803f d06c c462 6f81 843f
00000160: 0023 4c70 7a1a 84bf 40c4 d9e4 e7b7 8dbf
00000170: 506b 460f 22fd 883f 7830 448b d512 933f
00000180: 8022 d652 1703 a13f 34e9 e7a2 ff39 af3f
00000190: ec1e 6887 2e03 aa3f d83e 8c79 7da3 c4bf
000001a0: 9cd8 2c51 ecac ac3f d205 e464 1e17 babf
000001b0: 262d 5b42 f0e9 ae3f 4c53 6182 910b b0bf
000001c0: 7657 b6be 8846 a83f 6c83 5260 5556 92bf
000001d0: d078 ae7b ba11 873f 00cf 0fc3 4fca 543f
000001e0: 5026 ff05 d05e 803f 984b 7af6 f41c 87bf
000001f0: 60cb c413 d6f9 6a3f 80ed 4f33 4123 87bf
00000200: 809d 5f8a 2581 58bf 009a d845 a171 7b3f
00000210: a0e5 cfc4 312e 81bf 602a 867a 28eb 8cbf
00000220: a01e 4bfa 573a 9a3f 70e4 1b41 6541 7bbf
00000230: 80fc 23c0 2db8 8e3f 0008 d2af 21b9 773f
00000240: a039 93d8 c291 893f a085 9f49 e0f7 7cbf
00000250: 40a9 f310 92a9 6bbf 608f 4252 2190 733f
00000260: 7c10 a1b9 5cfd 94bf b027 af8f 7e30 88bf
00000270: e836 ba7b dc77 90bf 1430 fa7a 25a3 97bf
00000280: e0ad 279e 22e3 873f c06e 9127 91f2 8c3f
00000290: 50dd c04d ec12 973f 200f c820 8c14 833f
000002a0: 6020 613b e87a 763f 1848 6a44 ba17 90bf
000002b0: b077 7163 44e2 9cbf 007f 204f 4bff 57bf
000002c0: 80ba 6c15 6cc4 7b3f e0a2 0f51 cb72 933f
000002d0: 807a cfeb b481 79bf 0031 5a7b 7ca6 73bf
000002e0: c08c 9677 3e6d 63bf 40d5 1bbf e58e 8d3f
000002f0: 18b5 3b85 f521 983f 20f0 2cd6 d967 74bf
00000300: c034 2a8f ed73 663f 608a 1d1b 9f10 913f
00000310: 0047 9802 688e 923f d427 ebfe 1a62 a63f
00000320: dc13 ad17 ca5c b03f ee0e 96bc f370 c4bf
00000330: 2474 1265 1387 a83f 7c7c 9787 dc82 b1bf
00000340: 3458 3356 c6db a23f d0f2 b493 aaa6 92bf
00000350: 9004 7cfb 6e3d 733f 4013 d1fa d555 55bf
00000360: c83a b39f 5c80 87bf 0042 03ef f80a 73bf
00000370: c0cb 66e6 4f0e 8c3f 304c 975d b704 8dbf
00000380: 50bf 8d25 baa8 8a3f 8063 a6b0 a46c 6c3f
00000390: a497 65dc 56dc 94bf c07f 8633 5df5 76bf
000003a0: a8ef 7142 f276 a0bf 4035 c7cf a635 783f
000003b0: 400f ece7 c881 6ebf e061 0bfd 2d5e 763f
000003c0: b07b e358 a3bd 8e3f 201d 365b 5391 9c3f
000003d0: 7833 5830 952a 933f 801d a654 a7af 693f
000003e0: 0040 6058 8a1b 023f c09e 4e00 2ec7 94bf
000003f0: 9076 6e16 00d3 953f a0c7 8fa2 d2ef 7fbf
00000400: 001d 3ef8 f807 733f c0e8 121f 5c06 753f
00000410: f0ea eb48 9d20 88bf d0b4 609c 8cc7 88bf
00000420: 00ea 9f03 c579 713f c858 f4db 31d9 90bf
00000430: 0087 5f3b 3ab1 5bbf e06b 9b21 1cb6 8a3f
00000440: b046 78d5 ce52 983f 808d 59ba f344 613f
00000450: f044 849c a6ab 86bf 107d 7464 63b7 933f
00000460: 20ac 9186 6f01 7b3f 80dd e80c 7e78 8cbf
00000470: 5891 6283 788f 9fbf 80fb b8af 2585 a5bf
00000480: 60aa b7b3 3fc4 88bf 00d1 ac00 6304 79bf
00000490: 600c c0f7 df49 9b3f 2036 2ec0 e41f a83f
000004a0: c872 9b21 75f6 ad3f 085e 1faf aca3 b33f
000004b0: 1002 7984 d5a0 bd3f cc06 f81d b380 d0bf
000004c0: b6e0 a14b 04c2 b53f 1079 ea33 adeb b8bf
000004d0: acf4 9c34 73a5 b23f c451 aaf3 b544 a5bf
000004e0: 4006 31f3 3bea 953f b80a 0787 eaee 9abf
000004f0: e0e6 c255 9fc7 723f 9892 89cd 2777 8fbf
00000500: 6047 5e92 4e77 77bf 28c4 794f 22f2 963f
00000510: b06e 624c 3391 84bf 0829 8af0 28c9 913f
00000520: 407c ec7a 9e65 643f 20f3 05e0 d576 65bf
00000530: 28b5 3781 708c 903f 603f 9a88 aa02 86bf
00000540: b052 e6bc 9593 84bf 70cb 0892 d3e2 85bf
00000550: d0cf bcfb c857 78bf 80ee 1f88 58e7 81bf
00000560: 5c45 c35d 76e2 913f 80be 3443 e26e 623f
00000570: f08a e17e c67f 8e3f a009 d930 b2a0 7fbf
00000580: 0041 554e 73b3 393f 4010 ad2b 18c9 5e3f
00000590: 7a2d f643 fce4 90bf c08e 3127 e568 6d3f
000005a0: d029 e295 dc14 81bf 002a 5c8b 3893 62bf
000005b0: d86b e4e0 371d 963f c095 6cd7 2f73 52bf
000005c0: 0000 4427 1f8d c33e a091 b39a 12a6 69bf
000005d0: 64c0 97df fdaa 84bf f07e ebc6 905f 643f
000005e0: 04d8 d3f9 1e5d 92bf 1066 7b4a bea6 89bf
000005f0: 582d c283 78c3 9bbf 00c6 9b9e 5160 46bf
00000600: 1e39 350d 3bbe a03f 2094 a7c7 2f2c a43f
00000610: 6053 1bea 0b7d a13f 009f da34 0625 7c3f
00000620: a08f f4cd 2d33 703f a022 2fbe 8d31 6abf
00000630: e25f 44cf 1112 9cbf cc12 0a70 1814 93bf
00000640: 80fa bf82 4548 47bf a049 f736 3b75 92bf
00000650: 9b7f af6b b431 82bf fa02 ad15 4e4a 98bf
00000660: 4070 4c41 29b3 863f 8071 f494 4e4c 873f
00000670: a4ce 2d4d 59a0 873f a0e6 24bc 8bf7 653f
00000680: 289b 0bc4 c483 8d3f c690 877c 78b3 96bf
00000690: dc37 8250 4aef 833f 5e10 b4c1 36a8 97bf
000006a0: a0a2 7364 9da9 723f 0808 81e9 b9cd 8abf
000006b0: f064 67ed 2e7e 88bf e87f e749 ab7a 8b3f
000006c0: f0e8 096d 2b7a 8bbf 70c7 b0c0 f185 813f
000006d0: f0f5 60a2 79bb 893f 0060 21f8 f4fc 793f
000006e0: 60f9 4226 70ba 7e3f a019 f4ee b4c7 853f
000006f0: 40d4 8686 6334 76bf 80dc c570 511a 773f
00000700: 4018 35e2 c8fe 70bf c082 04f1 5e70 74bf
00000710: 70d8 b3c6 2538 86bf b883 87c2 bfa3 9abf
00000720: 8050 8566 e643 5c3f a090 c38c f10c 7f3f
00000730: a019 377a be3c 95bf a09c a872 8dcc 84bf
00000740: 8084 5907 b916 543f 40c5 2d01 86e2 9c3f
00000750: c0b0 f2e7 a610 8a3f 405a db05 c1fa 703f
00000760: 40e1 3c33 b654 783f a0d0 7699 fb86 823f
00000770: c0d7 27b6 b5f1 733f a074 afcd c787 8a3f
00000780: 0082 3ad2 1c95 5b3f 607a f342 fa39 a3bf
00000790: 7093 e7d0 0430 9ebf 0081 7e21 3387 713f
000007a0: 4029 a421 f8bc 853f 4047 ef04 0bbf 843f
000007b0: c07b e6e9 c21e 70bf c026 f382 93ff 903f
000007c0: 3079 54f0 7d9a 9c3f c0da 81da bef2 b63f
000007d0: 6c82 fa5c b71d c53f a2d7 a7fd fea8 d1bf
000007e0: dada eca3 19a1 bd3f 2e6c 13ec e3fd c2bf
000007f0: 34cd cdc2 bf65 ae3f 6294 c678 2dd0 b0bf
0.07737355777369447 -0.11520748901693117 0.08051185833586182 -0.09836174273272481 0.06893179983079017 -0.04779848299084259 0.047520528185218694 -0.030160883236559216
0.02705115800038685 -0.013759339755525818 0.007647896353865868 0.005271767086838644 -0.00042852561183352733 0.004311935601462286 0.01448196455253585 0.005182394259725123
-0.018259161663022383 -0.025646509045045056 -0.012913578059055325 0.02206889308065716 0.023420125327119748 0.0005313072191972523 -0.008275317746760193 -0.003815038373591477
-0.015892602619275192 -0.010657564911300384 0.005289723749469455 -0.003604057900165124 0.0019775852694252777 -0.008403735203655102 -0.011423245633236032 -0.02386671325175438
-0.02246766746125528 -0.0047126485970713505 0.017011926880791367 0.01937993159759749 0.021726165909996098 0.008166765874862092 -0.003621265728972728 0.011493590174051993
0.006818398646616736 -0.0006271034823159549 0.008260522892904076 0.010012502862585398 -0.009816128303570704 -0.014510928794353117 0.01220156296840505 0.018626534104484865
0.033226708280442274 0.06098936904523314 0.05080552485384068 -0.16123932299568966 0.05600679865749322 -0.1019152637782306 0.060378559208027746 -0.06267651970968052
0.04741313293486275 -0.017907461170242042 0.011264283084355148 0.0012689379620924313 0.007993340666774845 -0.011285699626830056 0.0032929593272909424 -0.011297711733269322
-0.001495634709039212 0.006700162860886483 -0.008388890093544543 -0.014120403517854985 0.02561318841142557 -0.006654162907346536 0.014999730516590981 0.005791789616639065
0.01248504851755855 -0.007072330592536785 -0.0033767559867687036 0.004776125108182899 -0.02049775012007203 -0.011811245689290789 -0.016082234431954584 -0.0230832916554818
0.011663694812304948 0.014134534854910341 0.0225331232506652 0.009316534758006478 0.0054883071480348045 -0.015715513635378014 -0.02820689064935039 -0.0014646754684761176
0.006779119684138579 0.018992592642379402 -0.006227213595563996 -0.004797445542532808 -0.002371427541861232 0.014432711500811934 0.02356704354945291 -0.004981852459248898
0.002740825636755234 0.016664968519203405 0.01812136188352209 0.0437172352008727 0.06391585424451257 -0.15969702442463735 0.04790554627218338 -0.06840303716988844
0.036832998297242986 -0.01821390654116578 0.004697259449813931 -0.001302203144647865 -0.011475299476300008 -0.004649135968251006 0.013699173182294078 -0.014169151824637266
0.013017133971260059 0.003469773922188002 -0.020371777727084997 -0.005605091159310349 -0.03215748845192873 0.005910541160529192 -0.0037239955848934747 0.005460910456087181
0.015010143423237782 0.027898123209095904 0.018717127872196454 0.003135515992827187 3.453746744253028e-05 -0.020291060227150437 0.021312714928731824 -0.007797072213166972
0.00464627507961457 0.0051330183497901305 -0.01178095701970025 -0.012099360010405041 0.004266519152219761 -0.016453532266574894 -0.001690203539958579 0.01304265954552436
0.02375338724056658 0.0021080742179024337 -0.011069585467824855 0.01925425816182008 0.006593166014776691 -0.01390169598481239 -0.030820734995942928 -0.04203145761538618
-0.012093064949074861 -0.006107699135828648 0.026648997780295836 0.04711832853272946 0.05852094683880221 0.07671622538997991 0.1157353828830383 -0.2578552048363292
0.08499171110622936 -0.09734613912084833 0.07283706697940556 -0.04153984641485267 0.02140134498427515 -0.02630201768057347 0.004584906008113981 -0.015363989791873409
-0.005729014321234377 0.02240804300385349 -0.010042572754449836 0.01736892669809101 0.002489861995300241 -0.0026201417205683614 0.01616073406869592 -0.010747272771623961
-0.010047120883237198 -0.010686543363680662 -0.005943093386850465 -0.008742038397023366 0.01746544787676406 0.0022501391591943087 0.014892149684049255 -0.007721611078127216
0.0003921658047447846 0.0018789993325336735 -0.016498510025070946 0.003590056957863158 -0.008340571712570105 -0.002267466009361785 0.021595833875021814 -0.0011260955049662152
2.330691410645791e-06 -0.003130947433975531 -0.01009176577187549 0.0024869754482635884 -0.017933353422414214 -0.01252506890107255 -0.027112849275494483 -0.0006828688176183095
0.03270134483556063 0.039399617311382196 0.034157154395564104 0.006871246570575584 0.003955058025244457 -0.003197457162489606 -0.027412679935053925 -0.018631345594729606
-0.0007105197341841923 -0.01802532694802894 -0.008883866821576982 -0.02372095114992854 0.01108391027951694 0.01137601272653721 0.011536309879125746 0.0026815156171807325
0.014411484940365663 -0.02216900119846412 0.009733753759316892 -0.023102622578349823 0.004556288541814141 -0.013087704122998658 -0.011959425563804221 0.013417566483383284
-0.013416613831612939 0.00855625981612082 0.012564611690431854 0.0063447541343393254 0.007502019962144807 0.01063481668689975 -0.00542105557581346 0.005640333296802358
-0.004149231626177807 -0.0049899777079935315 -0.010849280477924078 -0.026015278099183553 0.001725172996960317 0.007580703310143516 -0.020739532670427274 -0.010155777989963533
0.0012261206551545112 0.028207868406245895 0.012727073625079632 0.00414538764535749 0.005940162391020742 0.009046521778920458 0.004869184313511299 0.012954293217200707
0.0016835004288752176 -0.0375517088630104 -0.029480052233242515 0.004279327134924182 0.010614336516046152 0.010130010688871871 -0.003935586339507802 0.01659994589571201
0.027933090013101125 0.08964150271081461 0.16496936836212528 -0.27593970080430996 0.11573944332199507 -0.1483731177057463 0.059370033769392455 -0.06567653845429924
