simulation_codes_and_data/red_noise_phi092/deseasonalized/deseasonalized2.5_corr_eco_model_planktivores_sig_2.2phi0.92ppyear50.npy (npy, 64128 bytes, 1 tensors)

array f8 [8000]
000000 48 4d 42 79 f8 21 b9 3f d3 b7 4a b1 fb f2 bc bf
       0.09817460022377589 -0.11308262899794323
000010 92 3b ef 34 c7 4d ac 3f e9 b4 95 29 dd 15 b0 bf
       0.05528090020344857 -0.06283361687902168
000020 60 84 59 05 87 10 94 3f 60 4a 7e 50 e7 15 8c bf
       0.019594297124403304 -0.013713652748070959
000030 68 38 b2 25 3f 59 86 3f 90 5a b0 3f 66 00 72 bf
       0.010912412012000952 -0.004394912156405653
000040 c0 05 14 52 89 97 56 3f 28 d7 e4 f7 07 df 87 bf
       0.0013789025327358567 -0.011655866863843636
000050 b0 38 12 42 ec e8 87 3f e0 d7 09 2a c0 34 6e bf
       0.011674733892757722 -0.003687262840965197
000060 40 66 46 89 03 97 61 3f 10 e5 8f 2e 1e 5d 86 3f
       0.0021472043101311844 0.010919795795404613
000070 40 91 d7 3e 58 93 83 bf c8 76 e7 d6 c8 c1 85 3f
       -0.00955838147906063 0.010623520906786324
000080 e0 ee 73 de 3c af 71 bf 20 7e d1 a9 07 d0 7e 3f
       -0.004317510384904216 0.007522611556026543
000090 80 e6 95 1e 59 40 5b 3f a0 c3 0c 1b a8 2c 69 bf
       0.0016632910067912177 -0.003073051768659643
0000a0 98 9f f3 6e ff ee 84 bf 00 e6 68 ba 91 a1 6b bf
       -0.010221477101779716 -0.0033729406598268508
0000b0 00 fa 47 63 2a e3 4c bf 00 f0 42 ac 3e c8 44 bf
       -0.0008815724345934695 -0.0006342226047517663
0000c0 20 dc 82 06 f7 7a 7c bf b0 6e 27 07 8f 45 80 bf
       -0.006953206008055296 -0.007945172696899178
0000d0 80 85 63 a1 fd 99 83 3f a0 9b 67 a7 fc 3a 75 3f
       0.00957105778474232 0.005183207444566046
0000e0 60 0b d0 f9 a3 57 76 3f 00 10 b2 3c 49 f6 87 bf
       0.005454674273098842 -0.01170022217252864
0000f0 00 f8 12 cb 9c e9 3e bf 00 b4 48 ed 7e 3a 5a 3f
       -0.000471688060382891 0.001600860549966443
000100 40 91 41 15 57 ae 67 bf b0 de 1c 4a 0b 6f 88 bf
       -0.002890749057813974 -0.011930549811594332
000110 00 80 ac af 30 c4 40 3f 60 8d 30 b7 6b 43 74 3f
       0.0005116689420425757 0.004947109951021517
000120 a0 89 c1 4f c7 ae 7c 3f 00 36 25 ef 05 0e 59 3f
       0.007002619324426723 0.001529222292976029
000130 c0 22 5d 50 77 86 66 bf 20 e9 33 99 18 35 7d bf
       -0.0027496652936956634 -0.007130714500130503
000140 20 1f 77 58 9c 9b 81 3f 40 24 7e 34 8d fa 65 3f
       0.008597585153338694 0.0026829488669517787
000150 80 ed 34 5f 03 04 53 bf 40 d5 56 dd c4 5e 70 bf
       -0.0011606247833942651 -0.0039966287635498365
000160 00 34 3d e8 d9 df 33 bf 80 e5 d9 f9 c0 0b 6d 3f
       -0.000303259563442293 0.003545643717015323
000170 10 b6 39 1e f9 29 95 3f b0 16 37 5c c1 22 99 3f
       0.020667927236379724 0.02454664349877217
000180 90 5c 74 8c 90 86 a3 3f 18 af 33 13 3c fe aa 3f
       0.0381360217526715 0.05272090658567502
000190 38 e8 1f 5f fb 96 b7 3f fe 18 d4 c6 30 16 c9 bf
       0.09214755127314411 -0.19598970135138666
0001a0 10 8e 2f 4f 14 f9 af 3f 2e 4e 4a 12 2d 2c bb bf
       0.06244719950316491 -0.10614282318629684
0001b0 a2 7f 30 df 14 de a8 3f 16 09 66 26 6c 64 a7 bf
       0.048569347615056616 -0.04568803757412547
0001c0 b0 47 17 d9 51 af 91 3f d0 72 85 c9 d9 c9 80 bf
       0.01727035415189676 -0.008197499716226103
0001d0 f0 85 7f 54 14 6e 8a 3f 68 8e f4 81 b6 21 85 bf
       0.01290527232044078 -0.010318208542748411
0001e0 00 80 5e c9 87 18 dd 3e 80 f0 b1 70 4e 66 5a bf
       6.936984524502643e-06 -0.0016113058107114775
0001f0 20 3a ef 6d 5b 4a 82 bf 80 25 95 3c 7a 8b 62 3f
       -0.008930887501176932 0.0022637736734948954
000200 c0 a5 e0 0b 57 03 77 3f 60 09 70 e0 f8 fe 78 3f
       0.005618419671045982 0.006102535414358762
000210 00 1c 9f 66 c6 b3 73 3f 80 c9 c9 73 fe f1 71 3f
       0.004810118678455488 0.004381174043930236
000220 20 b8 31 86 5d 86 7b bf c0 15 d5 95 f3 c6 76 bf
       -0.0067199376381790465 -0.0055608286905388105
000230 80 85 9b a0 e1 49 73 bf 40 b4 63 34 c1 05 81 3f
       -0.00470913062756162 0.008311757479953497
000240 00 c7 a6 88 25 e9 4b 3f 00 40 7f 4a 1c 1f 49 3f
       0.0008517678518755456 0.0007666481151265003
000250 c0 27 9f 5f 0b 81 63 3f 00 7c 69 ca 3c a3 40 bf
       0.002380869115744283 -0.0005077406720593869
000260 80 15 98 60 12 aa 6f 3f c0 86 65 8d 7d dd 6f 3f
       0.003865276234821635 0.003889794558902121
000270 80 1c 76 6a dd f4 5f bf 80 a5 10 3f 76 7c 62 bf
       -0.0019504701866439877 -0.002256613683603248
000280 00 85 62 9c fb e1 68 bf 80 3f e4 22 d2 f9 5a bf
       -0.0030374445223776414 -0.0016464759933718376
000290 00 2d e9 e9 74 d8 72 bf 40 16 9f 67 23 27 6e 3f
       -0.004600960439869128 0.0036807719706953013
0002a0 00 a6 4c 12 cd 13 68 3f 00 62 c4 ed d9 eb 36 bf
       0.0029391293814071684 -0.0003497511913948259
0002b0 c0 34 83 e4 3b 25 6f 3f 60 18 08 c8 93 63 78 bf
       0.0038019342210647566 -0.005954339285841298
0002c0 00 90 75 af 43 02 28 3f a0 7a 9c fd 70 92 73 bf
       0.00018317295301095715 -0.004778329248238095
0002d0 30 a3 27 c1 73 3e 81 3f d0 50 2a 87 f2 02 87 bf
       0.008419899303548556 -0.011236090421597927
0002e0 00 21 ea ae 91 c5 80 bf 00 43 64 99 af fa 5e bf
       -0.008189333105534491 -0.0018908228717615105
0002f0 c0 f8 cd 40 e9 ae 74 bf 20 60 9a 69 fd 62 91 3f
       -0.005049620766724938 0.01697917897271861
000300 b0 61 ee 01 85 d7 96 3f 00 27 35 33 ec 9d 9b 3f
       0.022306516878957516 0.026969614625421023
000310 34 6e 79 35 98 4c a2 3f 90 b1 2b 03 d0 a0 ab 3f
       0.035740620162610176 0.05396127737717216
000320 b4 2a 88 31 eb 02 b5 3f 26 39 1d d0 1e 34 c8 bf
       0.08207578620219175 -0.18909058725189104
000330 c4 8a 81 6f 2b 50 ad 3f e4 1a c9 10 05 83 b8 bf
       0.0572522710433723 -0.09574920329860565
000340 5e 2c 1e 86 0f 90 ab 3f f4 61 b5 5e 7e 52 a6 bf
       0.05383347046071017 -0.04359812646970687
000350 88 e0 a9 45 73 1c 95 3f 94 40 12 ac 7b 1f 96 bf
       0.02061634171192897 -0.02160447347392898
000360 a0 6b 7e 03 f7 41 6c 3f 80 66 2e b0 ec 35 8f bf
       0.00344942326405602 -0.01523957169210921
000370 40 41 80 7e 9a 19 69 bf 80 5d b7 d6 70 98 6d 3f
       -0.003063966509223942 0.0036127284890700717
000380 20 95 7e 5b 1d 7d 7f 3f 30 2f 03 ca fa 2f 83 3f
       0.007687678029389106 0.009368857660227187
000390 00 0a ec f9 08 79 58 3f 70 b8 61 04 0b 93 82 bf
       0.0014937007578629258 -0.009069524832934855
0003a0 00 30 03 50 e6 f1 0f 3f 00 40 7d 71 57 bc 18 3f
       6.0930100518413743e-05 9.43592425504125e-05
0003b0 00 e8 f1 d2 9a 30 24 3f 60 5f d9 a9 84 8d 71 bf
       0.00015403642598582623 -0.004285352913562551
0003c0 80 79 be c3 8b 2b 71 bf 80 74 21 f1 9f 03 5d 3f
       -0.0041919192844076525 0.0017708837445049863
0003d0 80 76 d1 f1 54 a0 73 3f 80 df f0 b7 56 ab 6d 3f
       0.004791576208928228 0.0036217397423818354
0003e0 80 aa 62 29 b8 1d 6a bf 40 67 5f c1 aa ef 70 bf
       -0.003187999430413868 -0.004134814274914522
0003f0 00 61 90 49 24 f7 42 bf c0 26 25 d5 ac ff 71 bf
       -0.0005787779983874863 -0.004394221427284684
000400 80 48 4e b4 8a 8d 5a bf 40 92 78 50 5c 21 76 bf
       -0.0016206602606172738 -0.005402908900155767
000410 60 cc dc b1 01 af 75 3f 20 d8 99 90 c9 a9 7a bf
       0.00529385244390132 -0.0065095780970434725
000420 20 85 48 61 9e bb 7f bf 00 6e e1 80 0d 67 57 3f
       -0.007747286483693189 0.0014283782834557668
000430 c0 a3 57 4f 38 9c 89 3f 80 5c 5d 82 c1 78 6b 3f
       0.012504997178398258 0.003353479335526155
000440 a0 6f 3a 44 71 f2 81 bf 00 55 34 98 5b 58 60 bf
       -0.008763203520451956 -0.001995257278063378
000450 00 70 dd d3 d2 d6 8f 3f a0 cc 37 cf 58 83 91 3f
       0.015546462145429985 0.01710261120565504
000460 80 99 42 a3 b4 53 66 3f 00 28 f5 77 9d ba 43 bf
       0.002725460823131687 -0.0006020802392552316
000470 00 10 0f d7 62 54 76 3f 80 09 77 c7 e3 f5 65 bf
       0.005451570600545352 -0.0026807259380074444
000480 00 c9 f3 60 1b 8c 74 bf 00 6f a1 7e ab 99 65 bf
       -0.005016428897976377 -0.0026367520813844747
000490 80 69 6f ca 8c 6d 6f 3f 70 ca b6 0d 66 98 91 3f
       0.0038364171809749936 0.017182917201078174
0004a0 f8 90 a2 b1 92 ae a6 3f 98 f3 a6 e9 81 c5 b1 3f
       0.044300636466944654 0.06941997484587004
0004b0 d6 0d 7a 44 9b e5 ba 3f c0 ea 12 ab 54 5b cd bf
       0.10506601735874396 -0.2293496928521872
0004c0 98 79 21 de 96 36 b3 3f aa b5 da f2 eb 12 bc bf
       0.07505171702493951 -0.10966372183857823
0004d0 3c c2 d4 c5 c6 34 a5 3f 2a b8 fc 8e 88 55 a3 bf
       0.04141827740602763 -0.03776194329690015
0004e0 c0 53 b0 5d c7 bc 89 3f c0 05 88 fa 1c 55 7a bf
       0.012567098185209846 -0.006428826520733677
0004f0 30 43 be 38 b4 70 91 3f 80 dd 5d f6 8a c8 61 bf
       0.017031494105654577 -0.0021708215817246024
000500 40 de ef 36 f3 e9 70 3f 00 64 0f d4 88 0e 7f bf
       0.004129362160703531 -0.0075822205407911625
000510 00 04 e5 7c 8e d5 48 3f 00 91 84 16 c4 da 42 bf
       0.000757879804759054 -0.0005753953419440905
000520 80 cc 4e b7 78 3f 93 bf a0 27 83 5a d7 4e 70 bf
       -0.018796812236996363 -0.003981438851221514
000530 00 41 8d 31 4e 09 5a bf 80 c8 27 b8 38 1d 75 3f
       -0.0015891326531410344 0.00515482097624631
000540 00 4c 08 e0 77 2f 63 3f a0 a8 5b 1c 85 aa 84 bf
       0.0023419705687586223 -0.010090866020125155
000550 20 00 f1 ca 49 fc 86 3f d0 90 4b d9 dc 22 83 3f
       0.011223389154224661 0.00934383905536898
000560 20 81 71 74 29 15 71 bf 80 39 d2 46 97 6f 6a 3f
       -0.0041705722170209125 0.0032270388242700565
000570 e0 81 fb c3 32 92 70 bf 00 93 21 c0 24 4b 5f 3f
       -0.004045675566630241 0.0019100054637643527
000580 00 ee 55 8d 65 ca 53 3f c0 7c 6e ed b4 bf 7c 3f
       0.001207923099484698 0.007018763301771702
000590 00 aa 05 ae 50 e1 5b 3f 00 72 54 dc 25 1e 42 bf
       0.0017016685379426244 -0.0005529103151818426
0005a0 80 8b a3 50 b5 8e 7e 3f 80 28 c5 c1 99 de 7c 3f
       0.00746031595392338 0.007048225987384638
0005b0 80 85 af 82 8b b2 6f 3f 80 2a 5f 8d 76 f0 67 3f
       0.00386931656019901 0.0029222789262111637
0005c0 40 c0 2d 75 9a 55 87 bf 00 44 18 cb 60 bb 3d bf
       -0.011393744183550436 -0.0004536734878409221
0005d0 20 c7 ca cb 0d 37 77 bf 00 bb c2 f8 a0 7d 73 bf
       -0.0056677378567416 -0.004758480830942657
0005e0 80 16 5b dc 1e 0d 63 bf 00 01 70 ae 8b 72 54 3f
       -0.0023255923032106662 0.0012480129314554333
0005f0 80 08 74 6e 6e bc 69 bf a0 02 8e d4 d9 f7 81 bf
       -0.0031416088928618024 -0.008773519324450973
000600 c0 10 ad 79 05 d1 70 bf 00 54 c4 d9 3f ca 53 3f
       -0.004105588329199772 0.001207887987282108
000610 00 42 81 66 f9 02 68 3f 80 15 fe a1 b6 a8 75 3f
       0.0029311057187799694 0.005287850770291924
000620 00 12 ba 6a 80 ef 66 3f a0 c0 53 8d 4f 75 9b 3f
       0.002799750150929592 0.026814692498135728
000630 f0 6b 5c f7 5e b3 a6 3f 1c cc 6b a6 21 34 b2 3f
       0.044337241836011176 0.07110796273245551
000640 7c 82 74 83 1d 71 bc 3f fc e0 c8 54 2a e6 cd bf
       0.11110100230554026 -0.23358658923985576
000650 58 f8 de f5 3b 6c b3 3f 18 4a fc 9b 52 3d bb bf
       0.07587027313908956 -0.10640446003188975
000660 e8 e2 da 7a 85 80 a9 3f 96 6f 78 cf 44 ff a4 bf
       0.049808665511084815 -0.04101004631613063
000670 10 1c 26 2d da 26 83 3f d0 17 5a dc 3b 7d 8f bf
       0.009351448538621937 -0.015375583326441872
000680 60 ea 45 01 e3 b3 72 3f 40 10 07 58 c3 09 70 bf
       0.0045660846120606224 -0.003915560781425909
000690 a0 35 6d 21 46 23 79 3f 00 75 a3 18 88 39 67 3f
       0.006137155482816153 0.0028350504045265845
0006a0 80 14 97 63 da 5c 68 3f 10 13 c2 53 06 60 84 bf
       0.0029739632998109777 -0.009948777609915221
0006b0 00 64 9c 4d 84 0b 49 bf c0 21 4d 08 b8 a3 72 bf
       -0.0007643123637733895 -0.004550665737788895
0006c0 20 47 98 1a 37 ee 8e 3f c0 3b db 93 9a 6b 64 3f
       0.015102797030553783 0.002492715749077473
0006d0 a0 3a 97 b1 8c 34 74 3f 00 33 34 e6 ef b2 7d bf
       0.004932927689380279 -0.0072507258476093295
0006e0 a0 4c 9e 56 59 3b 79 bf a0 4b df 48 1e 74 72 3f
       -0.006160115220967516 0.00450527028984285
0006f0 00 80 b5 d7 90 85 5c bf 00 8a 04 2b 1e e3 40 3f
       -0.001740828941215966 0.0005153558068154429
000700 00 00 7d ad fc 5a fd 3e 00 a6 8e bf 28 42 36 3f
       2.799550824694741e-05 0.00033963675337619903
000710 c0 e0 58 b8 b5 9a 83 3f 00 b6 12 10 23 a7 7b bf
       0.009572429359750223 -0.006751191104894527
000720 80 d4 dd f1 22 99 67 3f c0 74 71 c5 f4 16 65 3f
       0.002880638362450727 0.002574422901985146
000730 00 2b 85 15 61 37 56 3f 60 c5 59 ff cc d8 71 bf
       0.0013559768759303092 -0.00435714795240591
000740 20 15 03 2c aa 1c 7b bf 40 7a c2 d9 56 87 83 bf
       -0.0066191336956696045 -0.009535482903001768
000750 40 93 1d 7f 6d 3b 7c 3f 40 ee ab ff c6 b0 65 3f
       0.00689261219108489 0.0026477705663390527
000760 00 94 d8 65 b5 4d 43 3f 00 0e a6 2b d7 72 3c 3f
       0.0005890975696202227 0.00043409112154099705
000770 c0 2c 52 a1 e2 2e 61 bf 00 eb fb e4 0c 94 68 3f
       -0.0020975519533457943 0.0030002834172341286
000780 c0 4e 41 fa e8 68 73 3f 00 a2 6d b5 d9 0e 55 bf
       0.0047387219129466085 -0.0012852788983882535
000790 00 2c 2f 67 02 a4 71 3f 80 72 a7 58 db 35 70 3f
       0.004306802164999901 0.0039576118674317096
0007a0 80 36 aa 1f 86 bd 71 bf 00 4d 99 08 e2 06 63 bf
       -0.00433113472048563 -0.002322617980817676
0007b0 80 60 43 c9 28 bb 6f bf 80 35 db 78 97 2d 83 3f
       -0.0038734242062724022 0.009364302993527529
0007c0 a8 ae f5 44 80 3d a2 3f 58 8e 7d 2d 0c 5e b1 3f
       0.03562546579163711 0.06784130201918381
0007d0 24 5e d4 e2 ab fb b8 3f 72 3e d5 69 af 67 c8 bf
       0.09759020126181689 -0.19066422145487
0007e0 18 50 47 29 5c 61 ab 3f 96 5a c1 4c e1 45 b4 bf
       0.05347717288864845 -0.07919128536137018
0007f0 48 33 f3 54 14 38 a2 3f fc 7f 89 62 0e 66 9e bf
       0.03558410202967949 -0.0296861884729651
