simulation_codes_and_data/pink_noise/deseasonalized/deseasonalized2.5_corr_eco_model_planktivores_sig_4.5pink_noise_ppyear50.npy (npy, 64128 bytes, 1 tensors)

array f8 [8000]
0	0x3fc3112fd87eed37	0.14896200247845012
1	0xbfc4fa4fbb32361a	-0.16388889923511912
2	0x3fb1a18394f523b6	0.06887075792941641
3	0xbfb6e4ebbfccc1e4	-0.08943055565465091
4	0x3fa3fd90dd3bcacc	0.039043929105806535
5	0xbfabbccb3abbbbca	-0.0541747578807797
6	0x3fb643c5f5eb06fe	0.08697163823947204
7	0xbfa52d1df239568c	-0.04135984021983771
8	0xbf533b7f10595980	-0.0011738530023613636
9	0xbf7063095b835bc0	-0.004000698616628051
10	0x3f68168ef286eec0	0.002940444177708418
11	0x3f6b46f247484c80	0.0033297283173481795
12	0xbf95625d85a17da8	-0.020883046418359946
13	0x3f9993f86054b648	0.024978524093219684
14	0xbf8e55b1f3adb1b0	-0.014811887978532251
15	0xbf878de2167211a0	-0.011501089391693864
16	0x3f8a3a9cec8a7790	0.012807107895522113
17	0xbf854d2d1950ecc0	-0.01040110810764927
18	0xbf7eb4d300e2ea60	-0.007496666176104755
19	0x3f54252946815980	0.001229563053149002
20	0x3fa572ab8e5f6de8	0.041890488748062726
21	0x3f850563fcb25160	0.010264187955080828
22	0xbf9c3a38f6a14ae0	-0.027565851262191354
23	0xbf8b2afe39cd2b40	-0.013265596522293088
24	0xbf26d2f64df59400	-0.00017413384100986584
25	0xbf58a4758ab01800	-0.0015040538662574043
26	0x3f7e6359f4e36f60	0.007418967621756284
27	0x3f7c2c346b884b00	0.006878094449819683
28	0x3f56d2d5ec246480	0.0013930405698998893
29	0xbf905a45c9bcde70	-0.015969362676712284
30	0x3f7366b598303780	0.004736623147449381
31	0x3f81d2b8739ae470	0.008702698734270181
32	0xbf579f1554ce4100	-0.0014417370141224795
33	0x3f7bebdd5972c6a0	0.0068167349301561375
34	0xbf9271e762b3da08	-0.018012633704495712
35	0xbf7679c457c8c120	-0.005487219776611846
36	0x3f85dfcb508355e0	0.010680759806215911
37	0x3f62f583eac99680	0.002314336443577869
38	0x3f977a5480893160	0.022927589745721177
39	0x3f831bad010c12e0	0.00933013114400566
40	0x3f87f9abe227a8c0	0.011706679190826796
41	0xbfa851e922019858	-0.04749992885699389
42	0xbf903145d2cc6e30	-0.01581296061622889
43	0xbf7b1e771f28e520	-0.006620850867471689
44	0x3fa38dda84f0db40	0.03819163201153808
45	0x3f94ff3ed7b7bec0	0.020504934231154293
46	0xbf8282ca648b83e0	-0.009038525765790284
47	0xbf87e1b636f14e80	-0.011660979797091686
48	0x3f93f12f764fd078	0.0194747367822434
49	0x3fb31b1d4793bad4	0.07463248250472115
50	0x3fbca738d2ce31a8	0.11192660471551241
51	0xbfcd8181b534189c	-0.23051472995593236
52	0x3fbab5c2f5201cd6	0.1043359611941129
53	0xbfbc5a0f84097a12	-0.11074921582756073
54	0x3faa571a492686bc	0.05144579070043906
55	0xbf9d971d5e931248	-0.02889676942574429
56	0x3f9ab45674507c58	0.02607855877806417
57	0xbf960771d9710f9c	-0.021512774368843787
58	0x3f95ed1425906120	0.02141219596168853
59	0xbfa120159cd26d8c	-0.033447909730251885
60	0x3f6b706ca5903cc0	0.003349506569527344
61	0xbf889a2f27511ca0	-0.012012833011011914
62	0x3f8f7b548e3448d0	0.015371952619294055
63	0x3f7e1f4c3395b240	0.007354066526528202
64	0x3fa38bbbd50bd378	0.03817545867597166
65	0xbfa53a814214bffa	-0.04146198207524772
66	0xbf66f6f7caff4dc0	-0.0028033103662694348
67	0xbf8eac54cfc26550	-0.014977133360207034
68	0x3f86b0ffb3c2c6c0	0.011079785989156377
69	0x3f479461f42fca00	0.0007195928850463607
70	0xbf80dec39e867020	-0.008237388873389817
71	0x3f666b8556194840	0.002736816809183501
72	0xbf70d8f5a43ee5c0	-0.004113158738556277
73	0xbf84f11d06e43870	-0.010225512287913768
74	0x3f875aa3e2d2d360	0.011403351173024212
75	0x3f94a038346ad728	0.02014243907861793
76	0x3f81aa27c705dd60	0.00862532688255041
77	0xbf81547b329b4f50	-0.008461916429417876
78	0xbf8ce86f8d166410	-0.0141152110034444
79	0xbf990e0acb011348	-0.024467629089730353
80	0x3f263d143e3f0400	0.00016966697796585994
81	0x3f86ee3c21c92bd0	0.011196584492742107
82	0xbf8004ffda9c6710	-0.00782203565499942
83	0x3f97e8a503e7fe00	0.023348406184593884
84	0x3f6b18a2d0eb6d40	0.003307645797901465
85	0x3f808174e487b740	0.008059418892084502
86	0xbf79a29c736f0300	-0.0062585936893249094
87	0xbf7f8349866cc2e0	-0.007693564612780007
88	0x3f8df83e343824f0	0.01463364216671656
89	0x3f91c098ab8f3408	0.01733625933757213
90	0x3f7603cac6016760	0.0053747101629485206
91	0xbf92496b1ac33e38	-0.01785819388243068
92	0xbf86f25fcb71d3d0	-0.011204479595315592
93	0xbf861c06b06c7520	-0.010795643099806684
94	0xbf98c87e14fe6950	-0.024202318221435093
95	0x3f58d652f3b84c00	0.001515942581026719
96	0x3f5bc74daa89d600	0.00169546684824462
97	0x3f74301201ac1d40	0.00492865594674835
98	0x3fab5db47910f1e0	0.05344928720339559
99	0x3fbb2fee94101470	0.10620013346495383
100	0x3fc0a8c2669c394d	0.13015012750879365
101	0xbfd0629009483098	-0.25601578623241883
102	0x3fba6d6f2c999790	0.10323233450762204
103	0xbfc0aff79202ebb4	-0.13037008885825474
104	0x3fa93231c406e15c	0.04921107786089138
105	0xbfa498bcc2eb07de	-0.040227793496810924
106	0x3f720abb9e921f00	0.0044047669299585035
107	0xbf787b9863283240	-0.005977244627967837
108	0x3f925523fb0c7930	0.01790291042117892
109	0xbf938963d9fabe10	-0.019078788928423462
110	0xbf734a113b6c74c0	-0.004709307969077148
111	0x3f50c9d59f708280	0.0010246835861452974
112	0x3f7412d3684eee80	0.004900766191834216
113	0x3f9a46deda752598	0.025660974582284973
114	0xbf80909b97f0f7e0	-0.008088317465190842
115	0x3f7f75df64822260	0.007680771472344888
116	0xbf9ed363caaf5178	-0.030103263135815322
117	0x3f8dd2efdcad2b30	0.014562486574182992
118	0xbf627bbce4579c40	-0.002256268434155412
119	0xbf7a6e89b8f555e0	-0.0064530734810736845
120	0x3f6fb5e97bd97940	0.0038709221105782954
121	0x3f7573b26fa21760	0.0052372903975362595
122	0xbf994c32d2e3c2b0	-0.024704736825642726
123	0xbf986e72c2633938	-0.02385882674644188
124	0x3f8df71dba702c20	0.014631492855206985
125	0x3fa3efcf4462c324	0.03893897733485677
126	0xbf6c8919d766f0c0	-0.003483343574059189
127	0x3f96832bf6e82ee8	0.02198475546360515
128	0xbf72aab52a293620	-0.004557330774856122
129	0xbf9c6a3f121a1328	-0.02774904773697809
130	0xbfa21cd0b96d6754	-0.03537609351651719
131	0xbf71e5ec4ef4a780	-0.004369662360923843
132	0x3fa0f2a10821ec48	0.033101112597215876
133	0x3f7546ef420de800	0.005194601632746654
134	0xbf956289764eafc0	-0.02088370117751004
135	0x3f9452c9f1678490	0.01984706436076472
136	0x3f8c70baecdcf3e0	0.013886890748489422
137	0xbf968036fb806a90	-0.021973475552025834
138	0xbf772fd3e2a242c0	-0.005660846402080366
139	0xbf6ed34bf6f64480	-0.0037628635106519703
140	0x3f9248b8791ec310	0.0178555320669061
141	0x3f22be7376d9b000	0.0001430049846250503
142	0xbf74222912271740	-0.004915390427816579
143	0x3f75515305516880	0.005204510021110775
144	0x3fa0c734dc41c828	0.03276982487376784
145	0x3f91f8732fd04300	0.017549323838525588
146	0x3f813fa3f55f3860	0.008422165799768233
147	0xbf861a31258c00c0	-0.010792144735660592
148	0x3f9d00f485a7a890	0.028323956163071318
149	0x3fb730a0021db264	0.09058570911083447
150	0x3fbe9ce708e887d2	0.11958164184082357
151	0xbfd0eeafe549c56b	-0.2645683039800903
152	0x3fb506ca6fab6078	0.0821348688726874
153	0xbfbe6312127e291c	-0.11869919730648743
154	0x3fb072a0264845e6	0.06424904760958547
155	0xbfa110e6bc1d3512	-0.03333207174601162
156	0x3f92b80a3bf83908	0.018280181799178258
157	0xbfa047e3fb93db58	-0.03179848142638403
158	0xbf927636ed6a6ce8	-0.018029077759462192
159	0x3f9868a88044abd8	0.0238367393769002
160	0xbf9844a432c309e8	-0.023699346159228002
161	0x3f66fa601a47ad80	0.002804935169697209
162	0xbf6dec876fd270c0	-0.0036528249025434556
163	0x3fa7344ca2f154c0	0.04532088746115326
164	0xbf8cdbc2c9a2bf50	-0.01409103563159389
165	0x3f80c0fc82a4e1d0	0.008180592286053306
166	0x3f93fc8b8ade13a0	0.019518070555495037
167	0xbfa6664f2656b114	-0.04374930708886118
168	0x3f904df0bb844330	0.01592231888304524
169	0xbf88c6bf02ad2200	-0.01209782816808147
170	0xbf8391be8bd28860	-0.00955532898143846
171	0x3f764dd324b442a0	0.005445313242731814
172	0xbf84df70133798c0	-0.010191798769437432
173	0x3f7fb094769d7440	0.007736759123727899
174	0x3f9244c1ab1fa058	0.017840410298873927
175	0x3f7a2da1e3044a00	0.006391174669504895
176	0xbf932f417635fdf0	-0.01873495372774231
177	0xbf7876702e07c440	-0.005972326471678946
178	0xbf8723769aa7fee0	-0.011298109621747654
179	0x3f957865685fdc30	0.02096708726454838
180	0x3f13ed13e885f000	7.601198206502735e-05
181	0x3f9c31b5dcfc2da0	0.027533380139215802
182	0xbf883b86b4deec60	-0.011832287211168857
183	0xbf95156540e1bed0	-0.020589429936477555
184	0x3f991b6c5c0d4330	0.024518674009701147
185	0x3f84481ef11a03a0	0.009903184635961015
186	0xbfa0aea025938e58	-0.03258228739448715
187	0xbf7fddd48133e680	-0.007779913040616315
188	0xbf9a66f1ee1c4328	-0.025783329160790874
189	0xbf8df97db46c7b80	-0.014636022633167434
190	0x3f9c84dcf8857240	0.027850582760367226
191	0x3fa01c65f8ef9f78	0.03146666206140386
192	0x3f7a89ae56479100	0.0064789590873923775
193	0xbf86efacc3bf4060	-0.011199331020094572
194	0xbf69f94227514100	-0.0031706134855441492
195	0x3f7848f0b3a3ec80	0.0059289362345636976
196	0x3fa04848cfbfffa8	0.03180148635874441
197	0x3f9b9203777f4940	0.026924184959917996
198	0x3f919e6e24c00d00	0.017205925934843158
199	0x3fad10ee4a206c40	0.05676979689470629
200	0x3fb87d75da3aa0fe	0.09566437318665419
201	0xbfc97dfacb465cbe	-0.19915709424524225
202	0x3fa5c9461c27b184	0.04255122274102788
203	0xbfb08c905b6a0ed8	-0.0646448348216454
204	0x3fa0cdd2c3b562f8	0.0328203071500805
205	0xbfac4284df1f8d5e	-0.05519499992058273
206	0x3f90eda6ecf04d38	0.016531570636357545
207	0xbf9ccbe4108d6534	-0.02812153197314622
208	0x3f969af8dc4c7150	0.022075546689948766
209	0xbf794e5b9dfe8840	-0.00617824352221602
210	0xbf30a180cf767200	-0.00025376696381743113
211	0x3f966cc29a5410a0	0.021899262113053042
212	0xbf560722b7d5c680	-0.0013444747013093006
213	0x3f7ce9746bd349c0	0.0070585773184625444
214	0xbf94f1765d3e8580	-0.020452355805564704
215	0x3f919c0521c592c8	0.01719673174501926
216	0xbf8f2e67ef742ae0	-0.01522523116593305
217	0xbf78af5a118b1420	-0.006026603536786218
218	0x3f656d2fe066d800	0.0026155409898036552
219	0x3f71383fd408c0a0	0.0042040341655111
220	0xbf8b8137b0cb83e0	-0.013430056650976796
221	0x3f9bace2f461d100	0.027026697317027448
222	0xbf8cfb7f5ce159f0	-0.014151568433743628
223	0xbf8868ce87d93790	-0.011918653031127296
224	0x3f91dc77d59fd688	0.0174425815711943
225	0xbf80dc7fd395c960	-0.008233069080891553
226	0x3f89962f10405020	0.012493484195182758
227	0xbf9789b4268188c0	-0.022986235475749295
228	0x3f85cc58f784b3b0	0.010643668225918862
229	0x3f5427d7a5060180	0.0012302022842903548
230	0xbf91bfafd3f4a828	-0.01733278971838828
231	0x3f72883e26549a80	0.004524462482811686
232	0xbf6ed832db19ef80	-0.0037652009276011866
233	0xbf6f7ac231c50040	-0.0038427155360807597
234	0xbf94bfc84fc9f120	-0.020262842054294627
235	0x3f9904d676eb0540	0.024432517059499448
236	0x3f6054f26cba6100	0.001993630872515806
237	0x3f800f2da4bb8680	0.007841450299966413
238	0xbf4294c708afea00	-0.0005670520635015497
239	0xbf754b4aa20041c0	-0.005198756727637421
240	0x3f91787133498860	0.017061012988400015
241	0x3f9074a536359020	0.016069966729801988
242	0x3f4361f8f1b38800	0.0005915132091127706
243	0xbf30ac361f65c400	-0.0002544052253120044
244	0xbf76b3d0ed8d1100	-0.005542579769841405
245	0x3f7928a0744fc5c0	0.00614226033666071
246	0xbf80220d9c560dc0	-0.00787745126104411
247	0xbf88164b72feb000	-0.011761273810257933
248	0x3fa410f2511f1f10	0.039191791918311236
249	0x3fb139f656fac920	0.06729068397070082
250	0x3fb9ee1fb5ad94d4	0.10128973184108087
251	0xbfc816cbb2ace98c	-0.18819566940676358
252	0x3fb36700f51a6ba2	0.07579046234097445
253	0xbfba049f7851de30	-0.10163304030890496
254	0x3f90f5079b72def0	0.01655971418651253
255	0xbf89fd7c8caa9380	-0.01269051842002411
