simulation_codes_and_data/pink_noise/deseasonalized/deseasonalized2.5_corr_eco_model_planktivores_sig_0.1pink_noise_ppyear50.npy (npy, 64128 bytes, 1 tensors)

array f8 [8000]
000000 c7 be 60 42 cd f3 c2 3f f2 16 36 db 79 ac c5 bf
       0.1480652402983564 -0.16932604983974603
000010 7c b0 91 46 63 74 b5 3f a8 59 dc d6 7e 24 b7 bf
       0.08380718682173155 -0.0904006266176568
000020 9c c3 97 bb 19 b6 a7 3f 3e ec 58 34 99 ac a3 bf
       0.046311191701426696 -0.03842619670873447
000030 60 bc a7 dc a6 f3 95 3f 78 c5 53 c0 8b 8a 8c bf
       0.02143727037212917 -0.013936130339490246
000040 c0 f9 87 16 af bd 7d 3f 60 84 b8 a5 8e 99 72 bf
       0.007260974824474464 -0.004540974823187133
000050 00 b3 b1 0d bb 84 61 3f 00 8f cd db f1 87 46 bf
       0.0021384862316636832 -0.0006875925970288577
000060 00 b6 e4 ec 9f a3 40 bf 00 9e 07 b9 6b c4 3c bf
       -0.0005077868352480475 -0.00043895368528842904
000070 00 f8 97 66 8f 48 1f bf 00 8c 6f ff 5a aa 21 bf
       -0.00011933684586293292 -0.00013477669537484416
000080 00 b8 aa db 23 8b 39 3f 00 7a e7 82 47 07 4d bf
       0.0003897631210446617 -0.0008858775307166167
000090 00 80 75 35 a0 71 19 bf 00 cc 8b 70 16 5c 36 bf
       -9.70605882364417e-05 -0.0003411822113285612
0000a0 00 c0 4f 3f ab ec 2f bf 00 d2 4e 6c 1a 70 30 3f
       -0.00024356451436302606 0.00025082249731703254
0000b0 00 32 57 49 3a e2 33 bf 00 f8 a5 95 30 a0 35 bf
       -0.0003034012127869634 -0.0003299826254518079
0000c0 00 e8 81 8f 03 11 26 3f 00 e6 89 f7 ab ac 32 bf
       0.00016835373367368733 -0.000284950241201537
0000d0 00 08 7c ab b0 90 32 bf 00 28 e5 94 77 50 1c bf
       -0.00028328240613018085 -0.00010801057689949212
0000e0 00 a6 51 7e 15 a1 3b bf 00 64 12 4c 99 f2 36 bf
       -0.00042158865682626057 -0.00035015337568605753
0000f0 00 14 98 ac 5f 16 38 bf 00 c0 ce a1 de 57 3e bf
       -0.00036754451556958445 -0.0004630011115365207
000100 00 00 90 8c 10 cf 08 bf 00 82 2a b2 96 f1 32 bf
       -4.731911901245667e-05 -0.0002890580091534922
000110 00 da cb 28 3a a4 31 bf 00 36 59 4b ac 8c 3b bf
       -0.0002691881170870103 -0.0004203720703558067
000120 00 d0 9f a1 ee d8 0c 3f 00 88 eb f5 c1 93 31 bf
       5.502203221388613e-05 -0.00026820645682168465
000130 00 20 f2 dc e6 67 1f bf 00 4e ad f8 a5 30 3d bf
       -0.0001198038728366102 -0.0004454045489883096
000140 00 72 f2 7a 96 7f 3f bf 00 dc f3 85 0c 8a 2e bf
       -0.0004806272872402151 -0.0002329960143254428
000150 00 e0 f8 d5 9e bc 32 3f 00 58 be 91 56 97 2b 3f
       0.00028590085819102384 0.0002105038810184534
000160 00 c2 10 d1 48 cb 53 3f 00 86 8e 9f c2 96 66 3f
       0.001208134756108703 0.00275743496281744
000170 80 4e 82 a9 04 f3 80 3f f0 63 34 78 12 b8 93 3f
       0.008276020453457322 0.019256867014607992
000180 68 5d 7c 2e c1 48 a3 3f ac 8f db 7c 5a 19 b0 3f
       0.037664448666130224 0.06288686321528186
000190 68 8b 17 16 d9 24 b8 3f a8 52 da 6a 89 fe c9 bf
       0.09431225575785407 -0.2030803462736419
0001a0 06 c2 b5 64 d2 18 b1 3f dc 79 47 1f ab 56 b9 bf
       0.06678500136127505 -0.0989787055363886
0001b0 68 c5 29 59 a2 a3 a6 3f d4 7e fd d7 1f 21 a4 bf
       0.044217179664779505 -0.03931521903609583
0001c0 e0 3b 63 3a 53 e7 94 3f 30 b0 d1 a7 27 dc 8b bf
       0.02041368526334597 -0.013603505906040508
0001d0 40 cc 1e 8e c9 69 7b 3f 40 fd aa 1e 76 94 6e bf
       0.006692683529695265 -0.003732901289680207
0001e0 00 4a a9 ec 42 e0 52 3f 00 5a 1f e4 b2 66 47 bf
       0.0011521009024774154 -0.0007141469470706707
0001f0 00 6c e1 67 a1 62 28 bf 00 1c 18 26 24 ed 2e bf
       -0.0001860448864502151 -0.00023594919461819575
000200 00 8a b9 06 cf fa 34 bf 00 64 43 a8 69 a8 29 3f
       -0.0003201251445032194 0.0001957539535684394
000210 00 64 cc 8c a8 87 36 bf 00 c8 0a 14 04 13 19 3f
       -0.0003437792300232112 9.565079109100094e-05
000220 00 b0 eb 9f de ea 2b bf 00 00 0a 59 d9 a4 0e bf
       -0.00021299331270741018 -5.844867985604907e-05
000230 00 58 14 e3 eb 34 1e bf 00 bc a3 5b 0c 11 2e bf
       -0.00011522950878303795 -0.00022938991407481235
000240 00 30 08 29 75 8f 45 bf 00 80 31 0c 5d 24 1f bf
       -0.000657970626038118 -0.0001187974731222674
000250 00 e4 ed 37 a7 75 32 bf 00 b8 25 b9 d9 aa 2e bf
       -0.0002816708801485768 -0.00023397357706350652
000260 00 40 30 92 e7 c3 02 bf 00 24 3b 5f fa 30 34 bf
       -3.5791878211566264e-05 -0.0003080950984722386
000270 00 a0 d7 73 15 82 3c bf 00 33 40 db 62 cf 43 bf
       -0.0004349996923722621 -0.0006045563409330101
000280 00 ac 63 87 a8 da 2a 3f 00 58 93 19 ec 4b 38 bf
       0.0002048807834350297 -0.0003707362571508943
000290 00 b0 42 d8 93 e9 29 bf 00 e4 4e d4 4a ae 39 bf
       -0.00019769601579378016 -0.00039185835731420093
0002a0 00 90 18 ab 5a 35 1c bf 00 56 f4 14 8f a6 37 bf
       -0.00010760656257297052 -0.000360879833310207
0002b0 00 f2 1f 97 b7 85 3d 3f 00 10 f3 b2 d7 ca 16 3f
       0.00045047504602260813 8.694592974040072e-05
0002c0 00 58 31 93 35 3b 46 bf 00 b9 11 42 63 68 43 bf
       -0.0006784450146237742 -0.0005922779711349524
0002d0 00 bc 05 e2 b0 61 35 bf 00 7a e6 f6 22 11 4a bf
       -0.00032625740461517116 -0.0007954998707651595
0002e0 00 5e ce 8b 36 41 40 bf 00 00 c4 6a 72 05 d9 be
       -0.0004960552538361696 -5.965537337226934e-06
0002f0 00 2c be c7 d3 61 50 3f 80 ac ad 2d a6 12 6d 3f
       0.000999886337896383 0.0035489316627966283
000300 00 63 7c e2 44 82 82 3f d0 de e7 22 30 4e 94 3f
       0.009037531053353032 0.019829513674237742
000310 58 86 71 d6 b8 79 a3 3f 16 cb 27 27 43 b1 b0 3f
       0.03803804033010455 0.06520480829184935
000320 c6 43 9f 6a 8d 9e b8 3f ee d0 ca 61 05 82 ca bf
       0.096169317751687 -0.20709292674076302
000330 9a d8 14 76 83 1f b1 3f 0e e7 b9 a1 b3 59 b9 bf
       0.06688710816237844 -0.09902498911278831
000340 d0 5f 77 45 bc dc a5 3f 06 0e 67 44 16 12 a4 bf
       0.042699702720426225 -0.0392004927157608
000350 90 c2 80 af d0 64 94 3f 20 57 b4 46 4b e9 8a bf
       0.019915829383708117 -0.013140285582760536
000360 a0 91 66 2d 44 3e 7c 3f a0 d8 36 93 5f a6 70 bf
       0.006895319288024032 -0.004064915981350975
000370 00 57 d1 55 c5 17 57 3f 00 1a 92 40 68 11 48 bf
       0.001409476003819632 -0.0007344969791496792
000380 00 13 e1 67 97 15 49 3f 00 58 f1 7d 38 fa 42 bf
       0.000765513352015107 -0.0005791450347583105
000390 00 4f b2 42 d6 25 48 bf 00 d0 33 8d 85 25 01 3f
       -0.0007369323915491222 3.270448510220292e-05
0003a0 00 66 03 78 fb fc 3e bf 00 5f 4e 37 4a 8c 43 3f
       -0.00047284259200139345 0.0005965578444486475
0003b0 00 f0 da ff f9 bd 36 bf 00 a0 de 1d 24 60 3f bf
       -0.00034701684476678984 -0.0004787529159053783
0003c0 00 76 7e a3 9a e0 3d bf 00 80 42 22 ae e7 04 bf
       -0.0004558923278582261 -3.987312473552329e-05
0003d0 00 18 2c 7d ef c1 15 bf 00 70 09 23 4b c1 0a bf
       -8.299850678036846e-05 -5.1031213278845966e-05
0003e0 00 30 fa 85 a0 0b 17 bf 00 9c 26 10 31 8e 22 3f
       -8.791129357116345e-05 0.0001415667430368639
0003f0 80 6d 67 41 9e e1 55 bf 00 60 8e 3a 8b 37 21 bf
       -0.0013355298484530598 -0.00013135504312056234
000400 00 5e eb 40 14 c9 33 bf 00 e8 96 10 43 20 10 3f
       -0.00030190224144407973 6.151589709349481e-05
000410 00 30 ac 1c 84 86 3a bf 00 fa 28 e7 61 83 40 bf
       -0.0004047462977474492 -0.0005039432565537294
000420 00 90 64 c3 9e 3b 18 bf 00 70 5b 72 c2 2f 15 bf
       -9.24411441230455e-05 -8.082031544226487e-05
000430 00 bc cb 4f 0d dd 35 bf 00 a0 55 e2 df be 0c bf
       -0.00033361029618012017 -5.482788791760784e-05
000440 00 30 c5 4b b0 dd 35 bf 00 a6 ea f2 10 fd 35 bf
       -0.00033364824391379777 -0.00033551849166232883
000450 00 74 68 05 07 b6 2e bf 00 b8 b5 fd 42 c9 12 3f
       -0.0002343066759785961 7.166358357377223e-05
000460 00 b9 a7 a7 75 a7 4b bf 00 f0 df d7 af 4b 47 bf
       -0.000843937348063567 -0.0007109268769904808
000470 00 80 dd 52 5e 60 0d 3f 00 74 ee 7b d2 2d 30 3f
       5.6031111269616574e-05 0.0002468718411650639
000480 00 c8 1d 51 56 57 4c 3f 00 f7 96 20 79 4e 6e 3f
       0.0008649035901113766 0.0036995282905242233
000490 e0 30 c2 ee 14 ed 82 3f 00 8f cc ac c9 a8 94 3f
       0.009241260086377101 0.02017512433225388
0004a0 40 cd 58 16 d3 d1 a3 3f 4c bf b9 a7 93 b1 b0 3f
       0.0387102093485745 0.06520960659849812
0004b0 80 e9 a3 49 6e ee b8 3f 5e 47 ec 87 c4 b7 ca bf
       0.09738816545351447 -0.20873314511168933
0004c0 60 a0 57 81 6c e1 b0 3f 60 a2 63 27 a3 37 b9 bf
       0.06593969495554708 -0.09850520812654784
0004d0 00 f7 68 6a 12 21 a5 3f 24 3e d0 2f fd 68 a3 bf
       0.04126794384909083 -0.037910377585032046
0004e0 40 24 f3 1b 4b c9 92 3f 38 5a f6 ae 88 b5 88 bf
       0.018345998364371008 -0.01206499847357377
0004f0 00 2e 78 f2 9f f2 7a 3f 80 10 fd fe 30 6a 6b bf
       0.0065790412841226775 -0.0033465344385224527
000500 00 1f 25 4b 9b 7a 5b 3f 00 b3 fc c7 4b 35 51 bf
       0.001677180913775389 -0.0010503044176843335
000510 00 eb eb ba 04 cc 44 bf 00 c0 68 b2 bc 9f 1c 3f
       -0.0006346724602218357 0.00010919179167312443
000520 00 10 54 6b bf 28 1e 3f 00 82 83 44 ce 94 4f bf
       0.00011504810648338415 -0.0009637839475793997
000530 00 cc 41 cb 30 19 24 bf 00 50 11 07 ff f1 16 bf
       -0.00015333862905073103 -8.752936425199254e-05
000540 00 62 c0 1b 2b f3 34 bf 00 b8 cf 93 82 05 10 3f
       -0.00031966974688793504 6.111726266030959e-05
000550 00 66 75 c3 2a ce 40 bf 00 b0 dd 60 ad 30 01 bf
       -0.0005128582769586276 -3.278760060151931e-05
000560 00 40 a2 54 56 9b 17 bf 00 72 26 ec b5 72 38 bf
       -9.005274219675563e-05 -0.0003730482241282307
000570 00 68 66 80 01 96 31 3f 00 f4 71 47 06 81 3e bf
       0.00026834046038859416 -0.00046545413301385397
000580 00 10 f3 f1 6e fe 2e bf 00 9c 56 7b 82 90 2a bf
       -0.00023646454153525287 -0.00020267098231593894
000590 00 6d b8 f7 02 ed 47 bf 00 70 f6 26 59 e0 41 bf
       -0.0007301582804219164 -0.0005455432237115865
0005a0 00 00 83 c3 96 ed c9 3e 00 c5 6f 5f b2 db 43 bf
       3.0908682014663125e-06 -0.0006060238800939255
0005b0 00 e0 19 99 92 74 fb 3e 00 f0 c6 e2 1c 40 03 bf
       2.6183473500002163e-05 -3.6717301870464736e-05
0005c0 00 18 ec 6b 7e 1b 2b bf 00 a8 01 b5 59 04 32 bf
       -0.00020681303245612126 -0.00027491750825581196
0005d0 00 90 69 e2 fd 5e 15 bf 00 53 38 1b 9d 36 43 bf
       -8.152412974876677e-05 -0.000586344444345771
0005e0 00 d8 c9 f7 41 ef 38 bf 00 10 49 b6 72 fa 29 bf
       -0.00038047180695544025 -0.00019819879811866503
0005f0 00 00 f1 f4 96 d6 f3 be 00 8a ca 99 9f 6b 48 bf
       -1.8919220846180806e-05 -0.0007452515888711209
000600 00 94 26 2e 30 eb 48 bf 00 b0 fe 63 78 88 16 3f
       -0.000760458493733851 8.595690542162471e-05
000610 00 d4 c6 19 2f 6c 58 3f 00 43 1f cb 81 1d 70 3f
       0.0014906368224789635 0.003934390073440097
000620 20 d7 df 6b 50 ab 82 3f 60 c1 f3 67 9e ea 94 3f
       0.00911581830221625 0.020426249594437507
000630 60 99 b9 02 2e 77 a4 3f 54 74 8a fb 15 09 b1 3f
       0.039971769173279936 0.06654488936551789
000640 78 7d a6 13 a1 ae b9 3f 5e ff 1e 9e 94 41 cb bf
       0.10032088021988794 -0.21293885918384609
000650 a4 42 fb dd 55 ad b0 3f 74 7f 78 3d 2c 11 b9 bf
       0.06514488858671058 -0.09791828633069405
000660 3c 84 75 86 80 4d a4 3f da bc 93 2a cc c5 a2 bf
       0.039653793729265335 -0.036665325353050185
000670 30 3d b6 96 42 fa 91 3f 38 46 37 68 4f 06 87 bf
       0.017556229065630535 -0.011242504470746359
000680 60 5c ad 07 29 c9 74 3f c0 a4 d9 be f7 ce 69 bf
       0.005074653886217723 -0.0031504477290594524
000690 80 0b c3 60 ae 0e 54 3f 00 ee 4e 3b 7e 1f 42 bf
       0.0012242033872531255 -0.000553070675429479
0006a0 00 00 74 10 bd ab d4 3e 00 4c 8f 5c e3 32 20 3f
       4.928315554098006e-06 0.00012358689698874215
0006b0 00 82 a6 77 de c5 3a bf 00 50 40 65 cb 93 0e 3f
       -0.0004085224278700672 5.832161392063662e-05
0006c0 00 ca b4 96 b4 c4 38 bf 00 ea 5e fa 1c 0d 40 bf
       -0.0003779354944583313 -0.0004898444647019606
0006d0 00 bc b4 cc ea aa 29 3f 00 c4 16 69 5f b0 33 bf
       0.00019582859236197403 -0.0003004296241569393
0006e0 00 31 a7 28 66 48 42 bf 00 2a b2 6d 2a 68 3c bf
       -0.0005579470464965042 -0.0004334548554615625
0006f0 00 8c c9 94 29 60 38 bf 00 94 45 8d 25 2c 27 3f
       -0.0003719426647760815 0.00017679174801368824
000700 00 54 f7 f4 2b 1b 22 bf 00 e5 1e c5 68 ee 42 bf
       -0.00013813888152350295 -0.0005777370044973973
000710 00 e0 a0 cd 43 f7 3f bf 00 c0 ef 17 69 d7 1c bf
       -0.00048776059486810297 -0.00011002139034110847
000720 00 ce 15 df 24 f5 3f bf 00 10 8e ad cf f6 28 bf
       -0.00048763418370542655 -0.00019046101695263662
000730 00 a0 de 6e ea 40 0b 3f 00 80 a2 bc 4a de 1b 3f
       5.198207314488501e-05 0.00010630923421439675
000740 00 14 47 15 9d 7a 45 bf 00 48 a8 46 97 e8 19 bf
       -0.0006554858214761206 -9.883330646001665e-05
000750 00 d0 71 08 8b 72 29 bf 00 30 99 49 1e b6 30 bf
       -0.00019414851360333163 -0.00025499572220577527
000760 00 d8 17 d4 fb 29 3f bf 00 28 28 2f 05 35 46 bf
       -0.00047552488476243493 -0.0006777072251804572
000770 00 f4 26 d9 99 a2 43 bf 00 a0 13 3a d1 20 14 bf
       -0.0005992175304566638 -7.678296107693772e-05
000780 00 92 42 a0 c4 ba 42 3f 00 b8 82 b9 57 ec 35 bf
       0.0005715808952300727 -0.0003345216914664162
000790 00 00 2b 50 eb 3a 43 bf 00 7c 8a ce 78 d1 31 bf
       -0.0005868576993961483 -0.000271884912345699
0007a0 00 d8 75 80 59 e9 42 3f 00 bd c5 86 9a 1d 70 3f
       0.0005771338482378763 0.003934482211078505
0007b0 a0 f2 7a 1f 3c cb 83 3f e0 f2 cf 82 95 37 95 3f
       0.009664983473493038 0.020719848736905244
0007c0 f0 91 eb 91 f9 71 a4 3f 2e 7d 6e e2 42 8e b1 3f
       0.039932059347652316 0.06857698467364479
0007d0 cc 3b 7b 0b 53 46 ba 3f 12 f5 d7 5a f9 81 cb bf
       0.10263556509310873 -0.21490399299356305
0007e0 c8 d4 ce 1d 9f 26 b0 3f 5a b1 7a 6f 2e eb b8 bf
       0.06308931806309481 -0.09733858319913705
0007f0 74 19 06 4f a9 75 a3 3f 9c 7e d7 5e 73 42 a2 bf
       0.03800705995222389 -0.03566322834717292
