simulation_codes_and_data/pink_noise/deseasonalized/deseasonalized2.5_corr_eco_model_planktivores_sig_2.2pink_noise_ppyear50.npy (npy, 64128 bytes, 1 tensors)

array f8 [8000]
0	0x3fc4a81add449dee	0.16138015560248625
1	0xbfc724d27033e410	-0.18081121901175878
2	0x3fb5d7f22a8c68b2	0.08532632387906139
3	0xbfb5031da483c5f0	-0.08207879320595857
4	0x3fa52522b4cc3e48	0.041298946924254454
5	0xbfa31bf4bd21a510	-0.037322662436802045
6	0x3f737b128ebcec00	0.004756042948254269
7	0xbf8bb3f5b9398670	-0.01352683993826817
8	0x3f83989f101e0ab0	0.00956844585357905
9	0xbf61a6f7b2feef80	-0.002154811656479738
10	0x3f821f1d755efdd0	0.00884840979040194
11	0xbf8abace0daea560	-0.013051614563510838
12	0x3f81a191512fc3a0	0.00860894707690979
13	0xbf75d9ad2556e400	-0.005334545470241814
14	0x3f799cf677b88f00	0.00625320698194165
15	0xbf824fc65467eea0	-0.008941220713487852
16	0x3f635d668d9903c0	0.0023638728132770737
17	0xbf657230e58752c0	-0.002617927075542731
18	0x3f563e0109bd0680	0.0013575563561548931
19	0x3f6c4a32b1619340	0.0034533491225822444
20	0x3f7cd3eccb348cc0	0.007038044906298058
21	0xbf7795ca5d9b9320	-0.005758085718956335
22	0x3f8336ae32600f60	0.009381638443308027
23	0xbf8232bd95ebc020	-0.00888584245464591
24	0x3f6ba196f318dd40	0.0033729503855074727
25	0x3f822285641c9550	0.008854906194367601
26	0x3f7ab74cb06a8aa0	0.00652246433915829
27	0xbf9542575b7bc5a8	-0.020760884245594774
28	0x3f72d5ab6bc31a60	0.004598302472180821
29	0xbf62a548be722340	-0.0022760792522301954
30	0xbf8806dd7f7c14f0	-0.01173184438040173
31	0xbf64a8cd1153c880	-0.0025218968609062586
32	0x3f73a57101f68840	0.004796449123576407
33	0x3f7426064a2c61c0	0.0049190755551297705
34	0x3f67be6eaa3b5d00	0.0028984223771250095
35	0x3f3adfd7772eb600	0.0004100705183941178
36	0xbf7884d0285b2fc0	-0.005986035457407668
37	0xbf71967c85436b00	-0.00429390564769494
38	0x3f804f2b601937c0	0.007963503713792508
39	0x3f775fad96963300	0.005706480101605349
40	0x3f51596ae6bc2300	0.0010589164693916575
41	0x3f72cfeb94453800	0.0045928194343343165
42	0xbf8614d17c6a1d10	-0.010781895264939695
43	0xbf6341fd4d544a80	-0.0023508021646503896
44	0x3f5a8044cfab4b00	0.0016174957260559064
45	0x3f92d3f1f3fd8400	0.018386631504998974
46	0x3f8903fbcb7b7280	0.012214629313740177
47	0x3f8972716ef41c60	0.012425314138921617
48	0x3f995891142f5550	0.02475191770266366
49	0x3fa9bf13bec7bac0	0.05028592780933172
50	0x3fb76d8fa9ee6d52	0.09151552103724228
51	0xbfc8fcfb05621194	-0.19522035372586954
52	0x3fb273fd896037e4	0.07208237270262391
53	0xbfb6e9f6a109ff22	-0.08950749808900274
54	0x3fa1c9601eb5b1b4	0.03473949789881506
55	0xbfa42c238009aba4	-0.039399251346217384
56	0x3f902335958f3e98	0.015759312871351655
57	0xbf8223d387202410	-0.008857395707325494
58	0x3f87187ed44a72a0	0.011277190068818499
59	0x3f4e6e2fc0977000	0.000928662602003083
60	0xbf854b1879fd0700	-0.010397139761724628
61	0xbf819ab9759a1a20	-0.008595894719531094
62	0x3f817bf9dbdb2620	0.00853724672505779
63	0xbf4743cf0ec81300	-0.0007099877380488395
64	0x3f7212d5c48c6040	0.00441249373468372
65	0xbf598c38658fb080	-0.0015593100308662067
66	0xbf787a1ff4013700	-0.005975842301337186
67	0x3f77bea0b7b96c20	0.005797031215105469
68	0x3f72d8b8cfd279a0	0.004601213379969243
69	0xbf679d19d12e2780	-0.0028825287094535468
70	0x3f2bc1aff89a5000	0.000211765986297352
71	0xbf8a2f2fab010720	-0.012785313039902102
72	0x3f8099dd18f17940	0.008105971645076537
73	0x3f7de7b820266300	0.00730106281334808
74	0x3f68d64801abc800	0.0030318647744644878
75	0x3f585df18d0f6300	0.0014872416397705979
76	0x3f82365cfedebd50	0.008892752197282278
77	0xbf7e9cda46a9a8a0	-0.007473805084922486
78	0xbf87b242ac536cb0	-0.011570473560303135
79	0xbf60ab8deece6c00	-0.0020349285245635507
80	0xbf651aaaed364900	-0.002576192704233482
81	0x3f4621414e9ac800	0.0006753510362698112
82	0xbf3e01bd797c3200	-0.00045786739200151527
83	0x3f6932782f92bb40	0.0030758235339684303
84	0xbf7c36435e4429a0	-0.006887686879290561
85	0xbf7940330cf75120	-0.006164740959736542
86	0x3f808548b35c34d0	0.008066719030035335
87	0x3f7c2701f7479680	0.006873138122022504
88	0xbf7b7009c001a020	-0.006698644720110308
89	0xbf83473f165669b0	-0.009413235539615566
90	0x3f62dc7fa9729c80	0.0023024075886329265
91	0x3f68f3df9ed3d880	0.003045975454933958
92	0x3f7cca75883f4340	0.0070290175535355215
93	0x3f82a25f23d9e4a0	0.009098761827077972
94	0xbf7fee66f9a5fd00	-0.007795717474777364
95	0x3f711c4514ab4dc0	0.004177350851665762
96	0x3f886b419249af00	0.011923324848985839
97	0x3f8315975b962940	0.009318525774479114
98	0x3fa6602ff83e7280	0.04370260148354976
99	0x3fb0f73d30c6d760	0.06627256813848481
100	0x3fb94a84ede916c0	0.09879332359659099
101	0xbfc9d0b3f9c360dc	-0.2016816110178813
102	0x3faaca61f2f9c5a0	0.05232530680667513
103	0xbfb8fc692a8969a2	-0.0976014832353145
104	0x3fa8eeac84689ccc	0.048695937312282916
105	0xbfa1acee8b5a8c68	-0.03452249003500968
106	0x3f8631efa08d43f0	0.010837432944443365
107	0xbf788164db9d44c0	-0.00598277471165537
108	0xbf52b39f61860f00	-0.001141458173237575
109	0x3f81c11bfe0c2b20	0.008669108095565259
110	0xbf88ccf45a92fed0	-0.012109669698815578
111	0x3f80b82aa5a31700	0.008163769893495765
112	0xbf81236c26695a20	-0.008368344232775604
113	0xbf81ccaaacd2c770	-0.00869115199961687
114	0x3f619e5718a6b240	0.002150697812984853
115	0x3f31830c5d09c400	0.00026721050111350175
116	0xbf5298a37917e900	-0.0011350246826383192
117	0x3f82f9e4c6c64c60	0.009265696827048753
118	0x3f8591f826f63bb0	0.010532320679684876
119	0x3f64de82c94fd080	0.0025475077077264374
120	0x3f779c3a31555880	0.0057642243530918735
121	0xbf9253c4b3b79828	-0.017897675961556697
122	0x3f81242bbcdece10	0.008369771672597032
123	0x3f4aafd0e95f5e00	0.0008144159389713024
124	0x3f4340a8f929dc00	0.0005875420632283079
125	0xbf83b2114fa7de00	-0.009616980784797668
126	0xbf7b5f5d244779e0	-0.006682742914988243
127	0xbf79dfa559b0caa0	-0.006316800975627729
128	0x3f6fee4701d09600	0.0038977991921622657
129	0x3f62ab19731495c0	0.0022788521825016506
130	0x3f767bd5bbd3fce0	0.0054891919110098
131	0x3f71a6204f04d180	0.004308820920688183
132	0xbf82393d87b90c30	-0.008898239807541314
133	0x3f75648b7faac820	0.005222840229793163
134	0xbf71869c93d5a600	-0.004278766279961044
135	0xbf84a8978ba8baf0	-0.010087188672597475
136	0x3f7b5b65a7b78d00	0.0066789599327166105
137	0xbf6939a7aeb48540	-0.003079249863404826
138	0x3f79b350ea6c38a0	0.006274524762160422
139	0x3f816e4203ee1a60	0.008511081452309444
140	0xbf5249b1821e7700	-0.0011162026862402974
141	0xbf54da33f4d73e00	-0.0012727267634210504
142	0xbf51df0170ae1100	-0.0010907663406394819
143	0xbf628d8c2368d700	-0.002264760692265777
144	0xbf749410f09aa900	-0.005024019404723967
145	0xbf24da7b5726a800	-0.0001590991556217891
146	0x3f76733ed0e62300	0.005481000304265349
147	0x3f973f029e714d50	0.02270130245262908
148	0x3fa76311137547e0	0.04567769396329857
149	0x3fb315cc8b7fc364	0.07455137639750614
150	0x3fb8e6e945f5de96	0.09727342565553906
151	0xbfcb2295c7ec8072	-0.2119929529371834
152	0x3fae7de824c286d8	0.0595543427346123
153	0xbfb76a1a0778023e	-0.091462733100351
154	0x3f9d883e870a1b30	0.028840043060451126
155	0xbfa27f54db1ad708	-0.0361277120077102
156	0x3f975defcbbf0890	0.022819277582819597
157	0xbf983051277f84e8	-0.02362181476189998
158	0x3f8570e665336410	0.010469245875741634
159	0x3f8aae2f696b2f40	0.013027544407485103
160	0xbf85a1d6513bd4b0	-0.010562586168342797
161	0x3f81bcbaa2772d70	0.008660753329329224
162	0x3f3c190e18cba600	0.00042873949204977335
163	0xbf850b62ff4ebc30	-0.010275624672287348
164	0x3f70e90c91673780	0.0041285029351011415
165	0x3f7e2cebbf74e720	0.007367058649202979
166	0x3f492069dca4eb00	0.0007668034461752737
167	0xbf90e69fce876218	-0.01650476167728429
168	0x3f54107ab7c70f80	0.0012246321121986703
169	0xbf70e9ebbe9285c0	-0.004129334332135526
170	0x3f8d0027c8a833c0	0.014160452662531742
171	0xbf71a82af7421f80	-0.004310767970430507
172	0xbf670216aea51300	-0.0028086131107180057
173	0x3f5136025022fd80	0.0010504744137021793
174	0xbf79bdbadb342fe0	-0.006284456164632218
175	0xbf52fa0cc366df00	-0.0011582493440140396
176	0xbf6a6a07b09dc400	-0.0032243871873380847
177	0x3f76548675367d80	0.005451703287149612
178	0x3f5ad35231017b00	0.0016372969294235484
179	0x3f7c793c99ccfd00	0.006951557847798329
180	0x3f743a2d31a25480	0.004938293970686236
181	0x3f306b48bd774200	0.00025053525811549737
182	0xbf4f88377a9d7200	-0.0009622832196601316
183	0xbf6cc6198e3268c0	-0.003512430108071646
184	0x3f6ea4a839ae99c0	0.0037406240130224144
185	0xbf80d80b3f46dd60	-0.008224571102671774
186	0xbf4e50e80287f600	-0.0009251721249367573
187	0x3f78d691d08afb20	0.006064004505502735
188	0xbf8788e0cdcbf4a0	-0.011491543083588518
189	0xbf2d91fd950ce000	-0.0002256032990091139
190	0xbf7cee7bbff81120	-0.007063372991528177
191	0xbf8233e5a8b15480	-0.008888048372833746
192	0x3f51792ca9b8fb00	0.0010664878999617211
193	0x3f88f6dc2e7cea40	0.012189598244380595
194	0x3f77ea8543e8cc00	0.0058388906168600485
195	0x3f60a1009183b700	0.002029896841228118
196	0x3f895b0f302edde0	0.01238071313660688
197	0x3f9a701398a2c0c0	0.025818163100382874
198	0x3fa2f035433e97c0	0.03698889203887701
199	0x3fb079ec69b22570	0.06436040478197014
200	0x3fb803489c6eea2c	0.0938001043240681
201	0xbfca5dff9fd84040	-0.20599360756796337
202	0x3fa9ab63917510dc	0.050135718828217185
203	0xbfb7d36bf1e6bad4	-0.09306978851121112
204	0x3fa2a95b73b17598	0.03644834315557971
205	0xbf9be8af901b2fd0	-0.02725481335691865
206	0x3f9029ddb2698608	0.015784706129471388
207	0xbf734a701fcdc880	-0.004709661469734283
208	0xbf2edb4f3630b800	-0.00023541776599372843
209	0x3f796516abcf1b80	0.006199921187493795
210	0x3f7ae8525bade120	0.006569215499318909
211	0xbf8438070f9efad0	-0.009872489132133039
212	0xbf844e8b4ba5f9d0	-0.009915436025718899
213	0x3f8b96c5d6957e80	0.013471170054514703
214	0xbf71bb68af0f0ac0	-0.004329117699799212
215	0xbf7ec3241aa8bd80	-0.007510319740091531
216	0xbf82d5b529bd31a0	-0.009196677528643005
217	0x3f7bebe8ad026f80	0.006816777124324491
218	0x3f769b14704922e0	0.005518989408820757
219	0xbf471ecae97cff00	-0.0007055750638542413
220	0xbf6dfd5a6d835d80	-0.003660847298401826
221	0x3f8112e960aabd60	0.008336852324048294
222	0xbf3afc2756384600	-0.0004117580449199687
223	0x3f364e05fff0c200	0.00034034391859719126
224	0xbf87b865a492f690	-0.011582178196813758
225	0x3f62f3dfcebe6040	0.002313553928569717
226	0x3f838252ec609d60	0.009525916899362386
227	0x3f8356971f57a7d0	0.009442501682276033
228	0xbf84149f9a3ce7c0	-0.00980496110388518
229	0xbf62502cd6cdd700	-0.002235496116948066
230	0x3f6f457e1bcff680	0.003817316347066335
231	0xbf6635bfeb261bc0	-0.002711176720541414
232	0xbf842b5a52b546a0	-0.00984831395058744
233	0xbf7e0bc776468920	-0.007335452221385347
234	0x3f89ffba52c3e450	0.012694793368142637
235	0xbf743aa927257940	-0.004938755754066826
236	0xbf6f8fa1d72ca140	-0.0038526688525914177
237	0x3f6f3cff183c5e00	0.003813265067843963
238	0x3f77e16ee8130c40	0.005830224255251315
239	0x3f68406f821fc7c0	0.002960412778514304
240	0xbf699ae23c723740	-0.003125612132470673
241	0xbf712dc67220d7a0	-0.0041940452375025805
242	0x3f7efbc41c4a14c0	0.007564321571981114
243	0xbf78ebdb07990c00	-0.006084304413493946
244	0x3f60b32ce84e5380	0.0020385624979532557
245	0xbf7c68a78a0bbac0	-0.006935743761217139
246	0x3f74b472d0bce440	0.005054901597582762
247	0x3f98070884361e30	0.023464329785865157
248	0x3fa18e5dfac85440	0.03428929983434914
249	0x3fb1fbaa52373dc4	0.07024635798665374
250	0x3fbdba019fee7f46	0.11611948160725402
251	0xbfca491e263f3c93	-0.20535637729196718
252	0x3fa4531e8fae36f0	0.03969665054238003
253	0xbfb57f4dfb8fa2ee	-0.08397376433971335
254	0x3f91f5335dabf9c0	0.017536928741714197
255	0xbf926bd13b23f548	-0.017989415392539315
