simulation_codes_and_data/white_noise_phi000/deseasonalized/deseasonalized_eco_model_planktivores_sig_2.2ppyear50.npy (npy, 63728 bytes, 1 tensors)

array f8 [7950]
000000 4a 58 89 09 bb a4 ec 3f 0f b2 7a 40 12 9b e9 bf
       0.8951087175617058 -0.8001796016083648
000010 7a 0b 45 c5 25 24 f1 3f 8a 83 c4 3d 0f 84 f0 bf
       1.0713250833366303 -1.0322410977171068
000020 64 c7 af fd a9 82 cb 3f 45 88 4e 44 aa cf eb bf
       0.21492504965822967 -0.8690997442356624
000030 48 ff e6 27 88 f8 ef 3f 64 d7 c6 e9 bc 2a d1 bf
       0.9990883616774022 -0.26823351697691167
000040 07 52 c4 e1 d5 c4 df bf 76 3f 20 a5 39 14 ad bf
       -0.49638888404413745 -0.056794930846193845
000050 38 e7 92 1a ba d4 c6 bf 86 ee b0 23 f8 a0 e4 3f
       -0.17836691186476528 0.6446495720951624
000060 5e 0d 2b 93 69 fd c7 bf a8 7e 76 d0 ec f3 df 3f
       -0.1874210327715486 0.4992630038995949
000070 82 52 76 81 62 d7 d4 bf 4a d6 8c 79 6e 31 d1 3f
       -0.3256460441855681 0.26864206190234496
000080 77 99 6f d9 2f 2c cf bf b4 53 6f cd 06 56 a6 bf
       -0.2435359775256065 -0.04362508065938844
000090 cc 39 f0 ff ee 28 ca 3f cb fc 3d 04 8b 9e d7 bf
       0.20437419411650948 -0.3690516988207945
0000a0 14 23 d8 3a a0 08 c2 bf d0 3d 84 14 d1 9e e1 3f
       -0.14088824151283375 0.5506368065561507
0000b0 f6 fa d8 55 a0 55 e3 bf 7e c0 a7 52 f2 71 db 3f
       -0.6042024304113898 0.42882974693112164
0000c0 c8 e3 8e f2 75 0f f0 bf de f2 41 cf 2e 02 e8 bf
       -1.0037745928695916 -0.7502664611816632
0000d0 0c 4e 5c dd 93 68 da bf e0 f1 82 d1 99 77 df bf
       -0.4126329099392201 -0.49167485675914513
0000e0 20 dc e2 55 6f a8 b0 bf c6 40 74 fc 3b 20 e8 bf
       -0.06507011267500262 -0.7539348536247636
0000f0 c5 a4 2d 03 3d e3 c3 bf 4a a0 ec ed b0 f4 d5 bf
       -0.15537226348104674 -0.3430597613792129
000100 40 18 ea d6 84 d1 d1 bf f4 94 22 84 34 ba c6 3f
       -0.27841301906335403 0.17755752994450058
000110 64 ae 25 f7 cd 6f b5 bf 78 0a 8f ce c8 92 a8 3f
       -0.0837372520815563 0.0479948761126438
000120 c0 e6 35 28 67 4f ed bf d8 81 60 a8 9f b3 da bf
       -0.915942743812785 -0.41721335833611084
000130 34 5b 3f 75 8b ef dc bf e1 d2 61 86 5e da e8 bf
       -0.4521206517214751 -0.7766564011240825
000140 96 aa 0e ab 56 32 c9 3f c0 12 10 e0 b3 d2 74 3f
       0.19684871055990943 0.005083754193951406
000150 4c d9 b1 15 66 30 bb bf 4a fa ff 48 71 54 d5 bf
       -0.10620725659996316 -0.33327896241090527
000160 b0 dc 83 5c 93 06 d0 bf a6 ac 17 16 08 58 bd 3f
       -0.2504013446300162 0.11462450541846411
000170 ef 58 ae 50 81 91 c2 3f 60 fe df 63 db 54 bc bf
       0.1450654643965161 -0.11066981495241057
000180 2e 4e 76 39 4a 40 ea 3f d0 6e b9 16 b3 be e9 3f
       0.8203478929812655 0.8045287555537133
000190 2d 01 27 67 b4 54 e1 bf 83 68 be e7 d2 e4 d1 3f
       -0.5415899290747227 0.27959129935482724
0001a0 be ee cc 6a dc 84 e8 bf 60 e9 1a c1 1b 1a e7 3f
       -0.7662183843562713 0.7219370624145931
0001b0 09 52 31 44 49 4f e4 bf ea a0 96 f8 f7 d0 f7 3f
       -0.6346784908187725 1.4885177336200806
0001c0 06 2f 43 87 dc 4b e0 bf a8 bf 7f 4e e3 ba b0 bf
       -0.5092604295582255 -0.06535168329696595
0001d0 90 b8 97 a7 60 8f a0 3f 10 e8 2a 96 d7 57 c9 bf
       0.03234388395127141 -0.19799322922136797
0001e0 5a 4b 17 82 e3 53 c3 bf 7d 4a 69 76 28 f5 ca 3f
       -0.15099758007144254 0.2106066301517621
0001f0 96 8a 10 93 3c c0 e8 bf 38 f3 93 df 31 a6 bb bf
       -0.7734663841586833 -0.10800468166776234
000200 68 17 fb cb 61 e5 d1 bf 8c 96 a0 5d 1b 51 b1 bf
       -0.2796253673553708 -0.0676438430387753
000210 30 f9 71 54 c6 39 a0 bf ae 16 93 13 96 57 d3 bf
       -0.031690786178830144 -0.30222083961084933
000220 2f bc 27 84 c3 36 da bf 7c e3 60 b9 1e 72 d7 3f
       -0.4095925131395601 0.36634033301702806
000230 be c2 3b 2a 58 63 d7 3f fe 9f 3a e1 47 60 df bf
       0.3654385006366673 -0.4902515124799719
000240 28 59 ca cc cc 71 e5 3f 34 42 c3 fb b5 0b e7 bf
       0.6701416015446613 -0.7201795499077606
000250 b8 e9 0a df 1b d6 d1 3f c9 22 ff 08 4b 6c dc 3f
       0.278693168463771 0.44410968664719214
000260 54 52 7c f1 40 c9 bf 3f 28 fb 05 1c 54 8d a9 bf
       0.12416463752408308 -0.04990637628633571
000270 70 2c 2f 9a e4 2d d5 bf 8a ae f4 71 cd 00 d4 3f
       -0.33092608506257815 0.31254898193831393
000280 fe 71 3d fd b7 ec e6 3f ff 03 cc f8 31 63 e7 3f
       0.7163963266462472 0.7308587893786579
000290 fe ac 5f bb db 17 d1 bf 0e bb 76 d2 e2 34 c1 bf
       -0.26708119676796105 -0.13442645336677866
0002a0 e6 3f f5 58 9f 1e c7 bf 9c f9 34 de d4 53 c6 bf
       -0.1806220230450883 -0.17443333482692658
0002b0 b5 9d fd c3 1d 57 e5 3f c7 d6 4c fd bd 70 d8 3f
       0.6668843105261916 0.38188123451560013
0002c0 72 b9 c9 6a fc 69 e1 3f 6e 0f d4 f2 9f 75 e7 3f
       0.5441877446844912 0.733108495973722
0002d0 b9 ae f8 76 a5 98 d9 3f f0 85 cc ec 77 c7 e4 3f
       0.39994179361631726 0.6493491768816835
0002e0 a0 7e fd 37 1f 6d 83 3f 90 0b 28 5a 96 7c 8f 3f
       0.009485477348504745 0.015374350191455638
0002f0 ad 61 d4 23 6b e4 dc bf d0 dc ad 5e 00 e5 96 3f
       -0.45144155978189354 0.022357946184880018
000300 8c b5 05 4d 3e 52 c4 3f dc 63 f4 04 b8 ce df bf
       0.1587598682485062 -0.4969921158204309
000310 28 68 3d 33 e0 ba c4 bf 27 51 65 e4 51 3c d5 bf
       -0.16195299627253346 -0.33180663399004334
000320 00 73 cc 30 d9 2b 9d 3f 14 21 e0 ee 0c ff c4 3f
       0.028487580874855034 0.16403352416842465
000330 00 06 74 fa 1a 9d b3 3f f4 e9 05 e4 54 d5 d1 3f
       0.07661598791676028 0.2786457278049561
000340 fc 5a 56 bf f0 0b a6 3f 1a 36 d9 ba 97 22 ca bf
       0.04305984817181316 -0.20418068526707672
000350 5a 93 ce 25 e7 aa ea 3f c8 e5 f3 a4 83 e3 a5 bf
       0.8333621729294507 -0.0427514208658511
000360 2c d7 f9 f0 db 23 c9 3f 4f 07 29 7b 6b 54 e1 3f
       0.19640683428195282 0.5415551572298031
000370 75 4c 52 cc bb 91 d8 bf ca d4 1d 64 5c fe e0 bf
       -0.383894872219748 -0.5310499148751202
000380 92 20 02 29 fc b5 ef 3f 62 04 23 14 35 f5 d6 3f
       0.9909649659102959 0.3587162682197854
000390 78 59 ba d2 2c 99 e8 3f b4 4d 25 e9 73 7a b9 3f
       0.7686981311588132 0.0995247310832415
0003a0 e0 ca ea fc aa e0 7e 3f f4 e3 c1 02 dd ed a2 3f
       0.007538478776654783 0.03697100313815574
0003b0 1a 7d 2f 7c 29 cd c5 bf c4 a4 f3 9e a3 83 c4 bf
       -0.1703235489248776 -0.16026730786624033
0003c0 78 ac 58 8b c1 19 a1 3f c8 02 2c ac 3d 6f e4 3f
       0.03339962793355594 0.6385792124493372
0003d0 a0 7f 32 e9 35 41 93 3f d9 17 0e 49 be df dd bf
       0.01880344615767593 -0.46678120741159784
0003e0 9e 10 b2 ab bf 12 be bf 00 26 60 d6 16 c8 95 bf
       -0.11747358266626626 -0.021271092256972324
0003f0 6d 2d 7d e8 07 13 e4 bf ac 45 32 df 18 92 c0 bf
       -0.6273231068420678 -0.1294585313631108
000400 52 ed 84 a6 39 77 df 3f 45 6e 37 70 0b 8f d2 bf
       0.4916519285358919 -0.28998075445790433
000410 44 3d 3a 53 3e fb e5 bf a4 86 2b ed 3f 2d ea 3f
       -0.6869193673646028 0.8180236465670601
000420 3c e3 e6 9b 2b d1 c8 3f 78 95 60 fe 3b 2b d2 bf
       0.19388337242505738 -0.283888815322221
000430 fa bd a3 6b b0 71 d7 bf 34 ea 58 66 ce 52 e8 3f
       -0.36631403457337763 0.7601081847163358
000440 07 73 6e 8a 5f f9 cb bf df 26 90 19 68 bf d2 3f
       -0.21854776629779613 0.29293253418346227
000450 a6 7d bb 22 d0 85 d9 bf 75 79 28 3f fc d0 d5 bf
       -0.39879229919275827 -0.34088045280250096
000460 46 51 de b8 d7 d1 ce bf 5c ae 27 79 af 3d e5 bf
       -0.2407788899114484 -0.6637799612339665
000470 8c d4 55 ad b9 fd bf 3f 24 60 cf cb df 5c c1 3f
       0.12496529084985947 0.13564679576552507
000480 00 b8 07 6b 58 ff b6 bf 58 1c bd ac 7e 5c ad bf
       -0.08983376133957677 -0.0573463044989288
000490 40 49 15 2f da 79 ed bf 20 9f 5b e3 2a 4b c4 bf
       -0.9211245460121873 -0.15854393102130704
0004a0 66 eb 58 bc ba eb e3 bf f6 d5 e2 b8 78 f1 bf bf
       -0.6225255659731885 -0.12477831376857992
0004b0 bc dd cc c5 df 99 c0 3f 2c 9f 8a b3 11 f8 c9 bf
       0.12969586523261778 -0.2028829695384443
0004c0 76 77 49 78 04 3c c8 bf 8a ea 28 ae 0e b6 e3 bf
       -0.18933158753764773 -0.6159737969931751
0004d0 52 f5 93 bd 6e 08 ed 3f 6b 5b c4 df 41 73 de bf
       0.9072793677038737 -0.4757847485756687
0004e0 80 17 f4 1d 87 13 83 bf 36 6c 9a a0 c2 7e c4 3f
       -0.00931459007416513 0.16011841623262207
0004f0 3c e7 9f 52 b1 fc b6 3f b6 13 c0 85 4c c6 cc bf
       0.08979328410341919 -0.2248016026570931
000500 58 32 7f 6c c7 6a c5 bf 4e 28 1e 1d 2b f9 e6 3f
       -0.167321136452659 0.7179160660464363
000510 da 1d cd 9e 6a 49 ea bf bc 0c 0d 8d 8d 2a c9 bf
       -0.8214619733416229 -0.19661111247305552
000520 38 dd 0a 2a 0b 49 d6 bf b8 d6 3e 2c c1 bf e2 bf
       -0.34820822816569175 -0.5859075416726318
000530 00 b9 41 c1 06 6d d7 bf 1a 52 85 fb 19 b2 d1 3f
       -0.36602944252707914 0.2764954525239617
000540 bc 7c 63 56 77 a1 c7 3f c4 6a 38 55 be 5f a3 bf
       0.1846150562114185 -0.03783983984268027
000550 18 4f 87 df b0 f6 bb bf 05 84 03 cf cd b9 da bf
       -0.10923295457115179 -0.4175905725115288
000560 ca 97 92 6e 14 f3 dc bf 56 a9 e1 34 a9 3a eb 3f
       -0.4523364143191172 0.8509107621041874
000570 62 67 63 39 59 d2 cb bf f0 06 ec b4 dd 5f b7 bf
       -0.21735682775652793 -0.09130654971161412
000580 1e 8a 13 de ac 02 da 3f 6a 38 7d d0 e0 a3 e1 3f
       0.4064132851328014 0.5512546608022266
000590 9a ef 28 15 aa ce d8 bf 4c 7d e5 9e 7f dd db 3f
       -0.38761379305264543 0.4353941966746404
0005a0 44 47 e7 e1 0b d0 ee 3f 8f 80 cb 9f 11 83 f4 bf
       0.9628962909866705 -1.2819992296208829
0005b0 c4 80 6f ee ba 83 eb bf 80 80 68 60 18 37 da 3f
       -0.8598303467697623 0.4096127454267915
0005c0 26 3d 7e 86 92 29 e4 3f 80 ae 39 a3 c1 e5 8d bf
       0.6300747515505563 -0.014598381799451277
0005d0 80 7d da 33 19 72 8f bf c0 52 df c5 e0 9c bf bf
       -0.015354344267790365 -0.12348751860492779
0005e0 5e 2c 07 3d 3c 14 ce 3f 04 03 53 04 51 65 c6 3f
       0.23499253253825975 0.1749669333567213
0005f0 74 37 0b ee f6 ca e0 3f f3 52 c5 f5 5a cc c4 3f
       0.5247759484570751 0.16248642921950526
000600 8e 03 62 5d 0f 2c c5 bf 80 35 79 87 4f fc b4 bf
       -0.1654071050616292 -0.08197495515306308
000610 d9 04 52 a4 8c 5b da 3f f8 15 9f be 92 43 ad bf
       0.4118377308551096 -0.057156167763917354
000620 14 d5 1a c2 5a b8 f1 3f c8 68 9c 17 22 ea ed 3f
       1.1075084287852563 0.9348307095672448
000630 62 8c 42 84 f3 ca d7 3f 88 96 62 b5 a6 f5 b3 bf
       0.3717621604539031 -0.07796708992335699
000640 a8 bf 0a 4e 0c 72 b8 3f 82 a3 91 fc 9d b5 c2 3f
       0.09549023537942836 0.14616751511064413
000650 f9 7f d8 7a 7d 42 d9 3f d8 7f d3 d7 8b 21 d4 3f
       0.3946832370438638 0.31454750134252896
000660 00 59 18 84 1e 0d e2 bf bc 2e 7e b7 d5 36 b1 3f
       -0.5641014652235583 0.06724296312148231
000670 d0 da 67 fb 88 e1 cd 3f 08 43 4d 50 ff a3 e6 bf
       0.23344528461139769 -0.7075192039866076
000680 b2 ce 34 97 a9 1c dc 3f 7a af 68 3b b2 7a d1 3f
       0.43924941793668915 0.27311378289845545
000690 84 56 77 21 97 96 d0 bf d2 d9 ed 25 95 66 d5 bf
       -0.25919130581073824 -0.3343861456300178
0006a0 e3 c0 6e e1 f7 6f e4 3f 50 5c fb ee 52 98 a2 bf
       0.6386680033665723 -0.03631838958033795
0006b0 72 35 29 47 fe df d2 bf 9e 01 4f 62 4c ea e3 3f
       -0.29492146443666123 0.6223508758630947
0006c0 7c 4c 21 cd 9e b6 be 3f d4 38 29 5c a8 8a d8 3f
       0.11997406490381651 0.38346299171543063
0006d0 9c f4 b7 4d 16 aa b2 3f 66 65 fd f5 24 37 d1 bf
       0.07290782353807618 -0.26899074575847803
0006e0 88 1e ff 48 ed f6 e6 bf 65 e6 ae be 58 aa d9 3f
       -0.7176424432481818 0.40102213498503253
0006f0 64 8c ce d2 88 00 a9 3f 78 9f dd 5c 8e 45 d1 3f
       0.04883220265698965 0.2698703677074188
000700 b9 1e d9 64 64 4c d5 3f f4 3d ce de fe 3b e5 3f
       0.3327876076550456 0.6635736800835148
000710 32 b9 fe 82 a6 e4 dc bf 4e a5 e5 98 5a ff e1 bf
       -0.45145571510774396 -0.5624211298246935
000720 16 a8 b2 39 17 b4 d1 3f b6 ca 78 fe 1a 01 c0 bf
       0.27661686548765496 -0.12503373551733937
000730 eb 7a ab 42 3a 46 f2 bf f2 5e db e8 fd 2f e2 3f
       -1.1421454052248758 0.5683583782183332
000740 7c c0 65 3e 05 2d e6 3f 8c 19 3c c3 47 6c e1 bf
       0.6929956644726327 -0.5444678128413201
000750 e0 64 02 c4 5b 99 98 bf d0 09 b3 56 7e e2 db bf
       -0.024022516096555147 -0.43569906679854586
000760 f8 24 2e 2f 80 7c c7 bf 33 20 9e e2 e2 cc c5 bf
       -0.1834869604465792 -0.17031513276401852
000770 a6 ef b1 f4 e7 5a c2 bf 18 0f aa 0a 61 ae 94 3f
       -0.14339923332215426 0.020196453357598093
000780 05 a5 91 38 b1 bf d2 bf 3c fc e7 3e 27 99 bd bf
       -0.29294996761616715 -0.11561818395419804
000790 2e 0a 30 bd ac 62 e5 3f 42 fb 0c 74 4b 06 d8 3f
       0.6682952590056794 0.3753842004115776
0007a0 ae 93 ac 29 a6 46 d5 bf 9c 85 b1 78 aa 3e b2 bf
       -0.33243707723368743 -0.07126870581261929
0007b0 5e 68 bd f3 ff 05 e3 bf 6f d1 37 0f e8 ef e3 bf
       -0.5944823990387353 -0.6230354592540105
0007c0 ee 9d 7f d4 6a 1f d7 bf cc 8b 12 1a 0c 4e c1 bf
       -0.3612925601177882 -0.1351943137461532
0007d0 87 ce c3 c2 9a 17 e8 bf 94 97 2d 75 74 11 e0 3f
       -0.7528814128877038 0.5021307266840602
0007e0 32 39 6b 90 51 b7 e0 bf 08 55 46 1d 57 5e d8 3f
       -0.522377759998369 0.3807580743681034
0007f0 7c 5e fd 6f e4 3b bd bf f9 5e 47 80 de fa c1 3f
       -0.11419513448833557 0.14046841872799812
