simulation_codes_and_data/white_noise/original/ecological_model_planktivores_sig4.5ppyear50.npy (npy, 64128 bytes, 1 tensors)

array f8 [8000]
0	0x3ffb2c37bf6f15f2	1.6982953527343594
1	0xbfe4035f35f4c6be	-0.6254116109687045
2	0x3ff21fb3f8c250be	1.132739993777292
3	0xbff1e3ac0dc2f913	-1.1180840051234255
4	0x3fe8f7b79fc03289	0.7802389259464501
5	0xbfe5fb7856c6794a	-0.6869470305280541
6	0x3ff54b3e95a1659c	1.3308702320995058
7	0x3fc1511b92f1fe08	0.13528771090567226
8	0x3fe6d0f8365aa637	0.7130089818576327
9	0x3fa3d873f31a19d0	0.03876077978661707
10	0x3fdce4cc8bed8ed8	0.4514647833332055
11	0x3fa7949ac87bd058	0.04605563828764109
12	0xbfdb04c4915ec5a8	-0.4221660060530561
13	0xbfdf723b8ea76a2a	-0.49134720736552373
14	0x3fdb25ca4cc89d05	0.42418153284457133
15	0x3fab54cbb19d13c3	0.0533813146890121
16	0xbfe381d11a7ba388	-0.609596778606929
17	0x4001082ef61f8006	2.1289958217967095
18	0xbff0c3788728a0d0	-1.0477223662983768
19	0x3ff82d4c160469b7	1.5110588893936503
20	0xbff788b4d27f323c	-1.4708755705388645
21	0x3fbb90eccc9ab484	0.1076801299593218
22	0xbfe246ce3b4fd10c	-0.5711432608063958
23	0xbfb784c56b9720bc	-0.09186967732159962
24	0xbfe6bd07b37461a5	-0.7105749611828754
25	0x3fbef4a52527f340	0.12092048794870625
26	0x3f7adf77f8617760	0.0065607725465194056
27	0x3fe55a6bafda7f0c	0.6672876772535985
28	0x3fc0548793d29045	0.12757963865181146
29	0x3fe0be6248ddd36a	0.52324022514095
30	0xbfba4c4559d5d9f4	-0.10272630160566348
31	0xbfd5c50fb58a225d	-0.34015267113185194
32	0xbf8fa6f64ab64250	-0.015455173640277625
33	0x3fe712b13ea7e7e0	0.7210317825076764
34	0xbfea6462361293cb	-0.8247538620095097
35	0x3fa28225497646d8	0.03614918252709537
36	0xbfe42f06e3bf5ae6	-0.6307405899231895
37	0x3fe8e00a5d0d9d93	0.7773486916966469
38	0x3f9534058fca5f10	0.020706259633327895
39	0x3fe75735a288ba0e	0.7293956923002172
40	0x3fd0a94d4e0a8f44	0.26033337231841736
41	0x3fb345ec6c908dba	0.07528569841865976
42	0x3ff0a255ad0bd697	1.0396324882143853
43	0x3fa7ac80d54dd058	0.04623797038848981
44	0x3fe64c947fcb3988	0.6968481536840025
45	0x3fe0138677e89678	0.5023834554637707
46	0x3fe5d960fb795e7e	0.6827855025866965
47	0x3ff21aa1ea929bbd	1.1315020716663036
48	0x3fd5d64699404ecd	0.3412033554643415
49	0x3fe357adad095d86	0.6044529323216217
50	0x3ffadd4843a504a0	1.6790239946715602
51	0xbff3df95858f2531	-1.2420859543947922
52	0x3fd625bdba350a48	0.34605353531165806
53	0x3fc8248b1b4a21f8	0.1886152156114489
54	0x3fe116ffe075e192	0.5340575584405534
55	0xbfe7e7c30e081c83	-0.7470412515693997
56	0x3fe1ba358c076b02	0.5539806113186787
57	0xc003f56df07c9ac0	-2.494838599016788
58	0x40016c9d95a00564	2.178034943529086
59	0xbfe2cb5110c9e1cb	-0.5873189285185217
60	0x3feb6b11a5648b22	0.8568199377371892
61	0xbfb1d79ee73d754e	-0.06969636102208662
62	0x3fca8f86017436d8	0.20750498839372855
63	0x3fe7a7548926e534	0.7391760519741752
64	0x3fb4acf86d4c5af4	0.08076431911863918
65	0xbfe1d181c7f728a6	-0.5568245797706097
66	0x3fc317abd403ee9e	0.14915988781273354
67	0xbfbc562526d4d16a	-0.11068947027235301
68	0x3fec48c520149c07	0.8838830591747645
69	0xbfb8d1c0ada929d6	-0.09695057143941396
70	0x3fd30e4eba507842	0.29774826235541607
71	0x3fa3628831ed4e94	0.0378611145921727
72	0x3f7ecba83a0d7320	0.007518441329776221
73	0xbfea6338b9b4be63	-0.8246120097227955
74	0x3ff24bacbec61fed	1.1434752895456726
75	0xbfe48e2831e035dc	-0.6423531507622857
76	0x3ff14132abbd7890	1.0784174641226265
77	0x3fb2732d23619b28	0.07206995118904713
78	0xbfbfebebb843cc3c	-0.12469361542370988
79	0x3fe4c4cd1b9b0586	0.6490235842867811
80	0xbfe55424f65183f8	-0.6665215311915054
81	0xbfc960277c33e312	-0.198246894498674
82	0x3fe581918e6aceae	0.6720664769731763
83	0xbfe6fb61a3121e9e	-0.7181862053848425
84	0xbff87b2e160d5656	-1.5300732480440238
85	0x3fd1e0f3549117b1	0.27935488947366155
86	0x3f88cf9f001f0ff0	0.012114755812838468
87	0xbfd589564e7fe846	-0.33650739351253767
88	0xbfd2386cf43bc3a6	-0.28469394541667226
89	0x3fee61647f13b69e	0.9493887407276878
90	0x3fe9114647aa8a70	0.7833587074022272
91	0xbf9feaab35162f60	-0.031168627848770725
92	0x3fe2e3891d45ecc8	0.590275342153654
93	0xbfbc35b28ef1841c	-0.11019435872869149
94	0x3ff6d0279d52301a	1.425819029364908
95	0x3fdd687cb3f7b8af	0.4595023877617547
96	0x3fe29d47f163675e	0.5816993441214711
97	0x3f968c09dd73f570	0.02201857961789727
98	0x3fd5d7883b0ff246	0.3412800385265523
99	0x3fe16cc92f437a76	0.5445295260540906
100	0xbfa61acbd64cb188	-0.04317318907701223
101	0x3ff1b9a1d6976080	1.1078203566048899
102	0xbff1a45eb8d588ed	-1.1026293964464984
103	0x3fc88183c8bf59b0	0.19145247747537786
104	0xbfb01f4a32b9fc32	-0.06297744501533556
105	0x3fed26e86f5a59d9	0.9109995055067045
106	0xbff0012ed823edaa	-1.0002888148290858
107	0x3ff93f9962a2ead4	1.578027138994618
108	0xbfe537ff6e80d48a	-0.6630856664911715
109	0x4000b50f258569b1	2.0884077960337994
110	0xbff22e98fa1548be	-1.1363763588783935
111	0x3ff6f69d8aae7178	1.4352088372462202
112	0xbfed8e5c96e5229a	-0.9236281344575048
113	0x3ff7bdea641dd844	1.4838661108783677
114	0xbfdeb6876f269828	-0.47989068846288996
115	0x3fd631c30ca0ab85	0.34678722603955975
116	0x3fe318b13c630262	0.5967642001560984
117	0xbfdd6dc0a568b990	-0.4598237624476491
118	0x3fdfb52af64796c0	0.4954326062273644
119	0x3fc2b04574401b06	0.14600437332429567
120	0xbfce4c96fc21ff74	-0.23671233473941877
121	0x3fe45e9a72bb0745	0.636548255999721
122	0x3ff155803e3187f4	1.0833742551262704
123	0x3fef0c53f513ea5d	0.9702548777270966
124	0xbfc7a7294315bbbc	-0.18478885436658554
125	0x3fe93bce1e6a2dff	0.7885504335440031
126	0x3fe89b17a8ffa596	0.7689321804765992
127	0xbfeffa5c4f9f6952	-0.9993115954523921
128	0x3fe1d2799818466e	0.55694274621983
129	0x3fd9038197a9292a	0.39083900271056626
130	0xbfdc73ccb7a4be54	-0.4445678513902511
131	0x3fd85c204ccfaa2e	0.38062293530552693
132	0x3ff25ad809cf0178	1.1471786864422864
133	0x3fbe05389c770b56	0.11726716823527047
134	0x3fca2fe194269ae2	0.20458621725011655
135	0x3fecc86893e32062	0.8994639290258528
136	0xbfcc572958b83b0c	-0.22140995819105347
137	0x3fd61461b8b9b720	0.344994001766155
138	0x3ff838fd39d4b804	1.513913370039064
139	0xbfd36cfc0cdfaf32	-0.30352689034656344
140	0x3fdda50f21887b77	0.46319940829010114
141	0x3fd1cef5c248e3ce	0.27825683568113113
142	0x3ff1f715d36ab04c	1.1228235491244218
143	0x3fe50d1ae030e953	0.6578497294170041
144	0xbfc7206ba3251776	-0.18067689386424107
145	0xbff31d9c025eb75c	-1.1947288601472428
146	0xbfb9c5580da4866b	-0.10066747983048578
147	0x3fe419a64a9e7c24	0.6281310517696324
148	0x3fd6661659e944de	0.3499809148825771
149	0x3ff676c5c82d0ade	1.4039972133038456
150	0x3fccf3f2852b6734	0.22619468214434735
151	0xbfb387423b4ca43a	-0.0762826342367057
152	0xbfd8c4defbc40b08	-0.3870160540247274
153	0x3ff17b3c5c534332	1.0925868612723204
154	0xbfe916b471e77f62	-0.7840215897267451
155	0x3fd7d5ac24c89956	0.37241653053424295
156	0xbfc5b707d82606f5	-0.16964815191391094
157	0x3ff100b81801164e	1.0626755654970057
158	0xbfe8f829017cc3b8	-0.7802929905939129
159	0x3ff221fadfeeaddd	1.133295893417077
160	0x3fdbc6ebf4efadec	0.4340162174182456
161	0xbfc185052ac34180	-0.13687195385001516
162	0xbfd0a629b39874c4	-0.26014177836061614
163	0xbfe11b2f84746cf2	-0.5345685565002027
164	0x3fefd9ecf77c4220	0.9953522523592859
165	0xbfd9ce9c3eb3201e	-0.4032354938794941
166	0x3fa5868cfdabcf10	0.04204216572352781
167	0xbfda67c19213727c	-0.412582771923361
168	0x3fcd3fcd5fbf683e	0.22850958991222287
169	0x3fcdda35f4461b5b	0.23322176387247393
170	0x3fb94cf47afb6046	0.09883049013603892
171	0x3fc9652279183a02	0.1983988848955534
172	0x3fc08c685f7ae9ac	0.12928490316501262
173	0xbfe2ef97be29cf6e	-0.5917471613051768
174	0xbfc4b6d5d1c1ed1a	-0.16182968847338303
175	0xbfd7fb746085565f	-0.37472257066597153
176	0xbfbc32bc9b09a3f4	-0.11014918122386047
177	0xbfe6bc366674b6c4	-0.7104751587955538
178	0xbfac21a67d533360	-0.054944231794798126
179	0xbf874cc3c446d8c0	-0.011376885821715255
180	0xbfe39caf56ff3fe9	-0.612876577297354
181	0xbfd2d69aa48e5d1a	-0.2943483931534999
182	0x3fd2c28a1d7dfef4	0.29312374954314113
183	0xbfe29e5611cea22d	-0.5818281505390296
184	0x3fe0cbdc8df55d14	0.5248854420305258
185	0x3f956ec2a45e5098	0.020930329591991453
186	0x3fd206fa3da7a478	0.28167587300283214
187	0x3fe3a2ef6be8163f	0.613639555697496
188	0x3fc417bd6f975a7f	0.1569744868163134
189	0xbfe43aa775244085	-0.6321599281236706
190	0xbfc64cde63a31d93	-0.17422084679695313
191	0x3fd3ce8d5184ed3d	0.3094819351278664
192	0x3fdcc985c9f216eb	0.44979996415382456
193	0xbfe3cf2b5ac8467f	-0.6190392277805613
194	0x3fe35e3bdfad0e37	0.6052531593963469
195	0xbfe10cd67cd4e9e2	-0.5328171194190043
196	0x3fad139ce4018bf4	0.05679025920178296
197	0x3fe46f6eda9543d2	0.6386026639175901
198	0x3fe26a236a33fd10	0.5754563402441892
199	0x3fe4e3cb4095a754	0.6528068791787782
200	0x3ff31e217b40efea	1.1948561491581082
201	0xbfe7980d7b8c73d7	-0.7373111165103364
202	0x3fe600d42280e772	0.6876011537453748
203	0xbfb312e39ada453c	-0.07450697451192395
204	0x3fc9ea4fd9a12c96	0.20246313215679795
205	0x3fe7a71ba10933bc	0.7391489167435945
206	0x3fcf61aaf249bcb0	0.2451680834815071
207	0x3ffeb60eb78d94d8	1.9194476289788351
208	0xbffb2b0a43cecfce	-1.698007836222121
209	0x3fecd0d63d5e4e3c	0.9004927824593731
210	0x3fe0796cd3d3a726	0.5148224007836901
211	0xbfe5aee30489f2e6	-0.6775984848642025
212	0xbf9e4a336ced7240	-0.02957992889729355
213	0x3fd90a4b043af65e	0.3912532368957268
214	0xbfe721fc3e059ef6	-0.7228985988012642
215	0x3fdc680467654e8d	0.4438487062190937
216	0x3ffd50781e704e2a	1.8321458043109353
217	0xbfca805c758610d4	-0.20704227198087344
218	0x3fda945c9a61b514	0.41530528141341105
219	0x3fecbfb6f7a3946b	0.8984026753138442
220	0x3fe26ebad36ff773	0.5760168199192165
221	0x3fae54283fd257b0	0.05923581866333849
222	0x3fa8b9f3253f3d50	0.048293684288746364
223	0xbfcaf943438957ab	-0.21073189542465562
224	0xbfdfab1f0c3fc794	-0.4948194141026019
225	0xbfccf36a93c43404	-0.22617847647816813
226	0x3f92c99e1c36f678	0.018347235176170845
227	0xbfc2a65757658548	-0.14570132987413786
228	0x3f3485aac2096600	0.0003131429566899102
229	0x3fe83305d50c30b9	0.7562283669554041
230	0x3fea19e404ba010c	0.8156604854885088
231	0xbfb773d7ee08c850	-0.09161138116249501
232	0xbfe9aec43ce3ecb6	-0.8025838078750869
233	0x3fd636abb015e45c	0.34708683200694224
234	0xbfe8d0a5ebba06e8	-0.775469742206238
235	0x3fcdc1f7e3b6d830	0.23248194331034844
236	0x3fd246d24d709b78	0.28557260096061254
237	0xbfd0a842d9791274	-0.26026984441367707
238	0x3fca3c0ce5a50d5c	0.20495759213563758
239	0x3fd1172b41e0cbc7	0.2670391219464218
240	0x3fcc1539adceff7d	0.21939774500605927
241	0x3fb071ff683ddfe0	0.0642394666191417
242	0xbfdad746d952ae96	-0.4193894502920811
243	0x3ff582bfdd91e519	1.34442125845664
244	0x3ff0670f7246f414	1.0251612152053484
245	0x3fe7524fcdca0835	0.7287978190727303
246	0x3fd0a6b7160c7467	0.26017548707188215
247	0x3fe0f091f4283064	0.5293664711657695
248	0x3fea974a6b936d7d	0.8309681035129156
249	0x3fef7f2cc5e19176	0.98427427910478
250	0x3fb64405f94a525c	0.08697545372189935
251	0x3f709191461ff280	0.004045073963422241
252	0x3fd3b0019aec151e	0.3076175702011187
253	0x3fdfaa09aa357faa	0.4947532808491767
254	0x3f89bc9b3e420610	0.012566769444904785
255	0x3fcae522dcaa021d	0.21011768126119615
