simulation_codes_and_data/white_noise/original/ecological_model_planktivores_sig2.2ppyear50.npy (npy, 64128 bytes, 1 tensors)

array f8 [8000]
0.0769873245253494 0.11125274418810871 0.25577366289289083 0.11497956914620876 0.6149816616706505 -0.1877187396672927 -0.23373630176371873 -0.006329597325262282
0.5770285932269372 -0.10420303110281921 0.67995091824935 -0.48424868788975056 0.38618848601864814 -0.16155589597035533 0.3465670784487811 0.23011271292232396
0.4260181964248003 0.17618164471231704 0.4619149038881495 0.37434690467045223 0.22021137796875584 -0.30330429317457247 0.4399534191848194 0.2774334240825176
0.6061254451707041 0.5843267681966974 0.486298351508287 0.4768765144117759 0.5563370264092949 0.7334071628798644 0.015155415473964567 -0.09030325873107856
0.8885801256656929 0.4507154804847435 0.2755351428475578 -0.09867567955238515 0.5741551211264371 0.16048808705833695 0.3765926886087543 0.368484622281233
-0.34204238348931226 0.03907810826228275 0.25969701626320935 0.5444589423123157 0.7611778392430097 0.22767109768092983 0.21173690482722987 0.5608033284140409
0.01732625657548209 -0.14481222893879886 0.9720960420870552 -0.6889268574202561 1.3270987462295212 -0.9172615285708982 0.8299067113288802 -1.056818483902955
0.7653520599136835 -0.27456311430217395 0.08063970918279978 -0.16099796194901306 0.5015840063845847 0.1604008842054118 0.19876745324709955 0.3377071079292395
0.020921034263213026 0.4987547748246689 0.18248221889919383 0.1325565640529286 0.666289098004659 0.0052952058496577165 0.0793231364559221 0.24733251338157813
-0.16424901122657032 0.7062631710136392 -0.3976491476988875 -0.16593969298496586 0.0736654415690669 -0.014798342347369209 0.4912669137342923 -0.02052769074489924
-0.14021684800708217 -0.4333630201102915 0.6101671066023389 0.6282730104292441 0.1917978907660015 -0.05068080343974135 -0.3417876226863479 -0.2567252712777739
-0.07552796311272084 -0.4081717788428495 -0.14519367292940283 0.04416186245623416 0.15348975966324618 0.21117997990141044 0.5107764946129936 0.34229560309939394
0.356802369223746 0.45013351346163033 0.8376741495567477 0.6597165266149144 0.43050611301233255 -0.4093355580654288 0.5608803618732499 -0.1953244661563051
0.19522822051010771 0.4316992497171256 0.25609163035545796 -0.3399147975991399 0.11298359313407119 -0.35899119117038103 0.35058642631314213 0.3710075143571739
-0.5746989309115837 0.2297024262614772 -0.2587043330921578 0.4311109317858936 0.1507914327203637 -0.16966427555792077 0.2566965848650989 0.37163553886668577
0.44476163709258937 -0.24291899909839376 0.505892590318091 -0.013916378894121395 -0.11895597923511644 0.2781699936622263 0.19783007909314998 -0.06470471863370492
0.16034082867171415 0.2920212911934147 0.5761794786391651 0.2974957692683664 0.3430859098343778 0.49384655706246544 0.011175867720913224 -0.22511413826666793
0.3250966878398437 0.12515596323782624 0.4686597815717703 0.32493671713087247 0.25474812068691444 0.6935110393379177 0.16297523701175093 0.22655433009286607
0.05933493483110003 0.36465354928427396 0.5155622374722522 -0.04685860235880057 0.6757211532842142 0.3279098926248711 0.4589936938871876 -0.24530203389700417
0.6374963497900101 0.083321261648651 0.23828806868192087 0.22751856445004887 1.0894538032849086 -0.382666218464991 0.309390427416024 0.18256396605942202
-0.03330844590660588 -0.16004240051794633 0.4162660349987122 0.5884186944812626 0.5099937980666555 0.5306356628691351 0.15832991149701847 -0.13269327241976503
0.08637303594022128 0.21136823100044544 0.4781612650261453 0.3956602133509435 0.5246960364757669 -0.48069758630571924 -0.2364295619013827 0.25689890140525395
-0.42949302774891784 -0.19416324999681572 0.6519927572076061 0.0020405367355103565 -0.11073988872543766 1.1155194158354265 0.5369692822594352 0.20995774174024448
-0.3551381668524644 0.5349940464496679 0.10654892154204756 0.4180884974212885 0.06986748237901202 -0.01594373567162849 0.013969230775466024 0.029731078103951203
0.2879405278616104 0.36220112585839115 -0.03049882650847674 0.30730724478534516 -0.4055623085399352 -0.2054025333801076 0.053195587311025666 0.20313157885629116
0.5886895591198054 -0.4481850034354485 0.4481647622523624 -0.5326525353445242 1.1455674363857946 -0.24826618412561985 1.0801392132107435 -0.22254780223236892
0.3991837115194432 -0.04223763659767107 -0.2006295823592649 0.5578736655284899 -0.4051959383429106 0.3918075820082071 0.1617855699009637 -0.05527187880349674
-0.2076995310300607 0.14380218010419668 0.27098809215163977 0.17352839115776517 0.3689283104549935 -0.021930359160585333 0.07235962215664968 0.37021317579846813
-0.4537863896579106 0.16559235169363984 -0.023079742616116478 0.35709141080541085 0.26437896415496065 0.43743473341015077 0.8521564022612329 -0.1664798137854564
-0.3228610645103272 0.619570487167036 0.2749365846980919 0.5203956646502166 0.0911945772742572 0.2946009788163607 0.30486001491727177 0.15902319768509282
0.5387451792325411 0.19221750732345647 0.1225334227999812 0.28022617070532807 0.38133890434663287 0.2501510770214278 0.7019461202453212 0.7294281761871372
0.42495774776492873 0.12516448893293416 0.6841797944992337 -0.30201748832480435 0.8428479992962262 -0.21810503400199524 0.5814659711622363 -0.18102322100413754
00000000: 70fc 0af9 70b5 b33f 78d0 e051 0f7b bc3f
00000010: e865 537f 985e d03f 5fee 3011 4d6f bd3f
00000020: 5c7c 9005 eead e33f 74d2 dbeb 2a07 c8bf
00000030: cc48 fb35 12eb cdbf 8040 2458 10ed 79bf
00000040: d887 18ab 0477 e23f cd0d bbc2 0cad babf
00000050: 1e84 986d 28c2 e53f 5183 6735 eefd debf
00000060: 9fad 62e9 4fb7 d83f 7796 d514 ddad c4bf
00000070: b0b2 f3ae 272e d63f 8196 3258 5574 cd3f
00000080: 964e 49d3 e143 db3f 41f2 18c1 1e8d c63f
00000090: 7203 6f87 0390 dd3f 6dc7 3ab8 4cf5 d73f
000000a0: 829c 4aed e22f cc3f b1f4 fa68 5669 d3bf
000000b0: 2161 ca62 3228 dc3f 0c1c d01e 78c1 d13f
000000c0: fe02 8930 6165 e33f 49a1 f20c ceb2 e23f
000000d0: 5fea f41e 831f df3f 5c42 6812 2585 de3f
000000e0: fd6a bf4e 83cd e13f c413 674c 1278 e73f
000000f0: f033 8b6e cd09 8f3f aee2 f846 1d1e b7bf
00000100: d682 7396 3f6f ec3f d4e7 1ebe 85d8 dc3f
00000110: e773 db26 5ea2 d13f c48b 9630 cf42 b9bf
00000120: f834 828f 7a5f e23f 9015 a8a6 df8a c43f
00000130: 1c30 5f38 181a d83f 3cb7 7186 4095 d73f
00000140: dcad bbbc 05e4 d5bf 10bd f3b9 0b02 a43f
00000150: 6d08 ee3b e09e d03f 6fe0 e728 356c e13f
00000160: 34a3 bfa0 915b e83f 9b5a 6497 5324 cd3f
00000170: 756b cbe4 311a cb3f 11d7 60d2 19f2 e13f
00000180: b04a 6a65 f9bd 913f 4c2f ad05 3589 c2bf
00000190: d8b7 aa28 691b ef3f 0098 3e56 b00b e6bf
000001a0: f4e4 19e5 cb3b f53f 49e9 62d9 345a edbf
000001b0: 356e fc84 988e ea3f 71be a27f bae8 f0bf
000001c0: 152d 689a c37d e83f 6668 272b 7192 d1bf
000001d0: a4f6 b2d1 cda4 b43f c496 a5ca 949b c4bf
000001e0: 50ca f3e6 f90c e03f 75b3 f423 0488 c43f
000001f0: e04d 9a3f 3671 c93f 6cb3 0b46 fe9c d53f
00000200: e402 d6d7 526c 953f 8a21 a625 99eb df3f
00000210: b503 23cd 935b c73f 541d bd0d 9df7 c03f
00000220: 2c90 b383 3d52 e53f 90a8 32ff 6cb0 753f
00000230: dcf2 e464 854e b43f dc0d 1b80 97a8 cf3f
00000240: 9429 cf91 1c06 c5bf 45ee bb38 b599 e63f
00000250: 2489 2969 1573 d9bf 5646 3d09 833d c5bf
00000260: 4c71 6206 bddb b23f 80f0 55e3 974e 8ebf
00000270: f21e 06c8 ea70 df3f 40a0 a501 3605 95bf
00000280: 86f1 442c a0f2 c1bf f6d8 aa3f 38bc dbbf
00000290: b676 fe2a 7d86 e33f 2719 1800 d01a e43f
000002a0: 9c10 2452 d58c c83f 100d 9e92 d5f2 a9bf
000002b0: 9063 6731 d9df d5bf 1077 0cd5 2f6e d0bf
000002c0: 62ac 80f3 cc55 b3bf 86ee 5186 7c1f dabf
000002d0: 22b1 68ce b495 c2bf 68bf f535 629c a63f
000002e0: 3424 036d 8da5 c33f 278d 9f11 f207 cb3f
000002f0: dcb4 7df2 4758 e03f 7718 38d1 2be8 d53f
00000300: 32e2 bc9a d9d5 d63f 8aae c9cb fcce dc3f
00000310: 84a0 a104 3ace ea3f fd22 4ed5 651c e53f
00000320: 566d 0783 698d db3f 7dc7 bec4 8d32 dabf
00000330: 2adb 665f bbf2 e13f a6ff 1f61 6400 c9bf
00000340: b170 2c03 3dfd c83f e689 cfe3 f5a0 db3f
00000350: 1dfc 4926 ce63 d03f 5058 c7fe 29c1 d5bf
00000360: ecd2 7e25 7eec bc3f 6a3f 6830 b6f9 d6bf
00000370: f3ee db0c 0270 d63f f9fe 2e4d 96be d73f
00000380: 1ef7 2903 ef63 e2bf 3c6d 4d9c e366 cd3f
00000390: 3ab7 7d9e 9c8e d0bf e7fb 3d4e 5297 db3f
000003a0: 6985 0638 224d c33f 0910 6919 8fb7 c5bf
000003b0: 2964 3f83 b76d d03f 1eae 5d6d e0c8 d73f
000003c0: 75ff 7483 f976 dc3f 2032 5a42 f817 cfbf
000003d0: c38e 56a8 4530 e03f e0fb d4c1 3080 8cbf
000003e0: ae7d 7a28 e673 bebf 9e7f 6084 89cd d13f
000003f0: d061 effb 7e52 c93f a4bb 6d0a 7d90 b0bf
00000400: 03e5 ad5b 0c86 c43f 8654 da11 7ab0 d23f
00000410: 9d35 2cf2 0f70 e23f 082f edb1 2b0a d33f
00000420: 6e40 9d9a 1ef5 d53f c7d4 f496 2e9b df3f
00000430: 600b ed92 5fe3 863f e07c dc42 8ad0 ccbf
00000440: dad7 9356 62ce d43f 6ebf 8050 1c05 c03f
00000450: cb47 b398 85fe dd3f 5630 565f c3cb d43f
00000460: 2856 c40f cb4d d03f e7e1 2b10 3e31 e63f
00000470: 1efc 8260 5fdc c43f e00d 4277 bbff cc3f
00000480: 5840 3809 2661 ae3f 44f6 22d7 7b56 d73f
00000490: 7cde 9f60 7c7f e03f 90aa 55c9 d9fd a7bf
000004a0: 7a46 d2f7 819f e53f d3f4 36c6 79fc d43f
000004b0: 8634 1416 2760 dd3f e66d 9d9a 0e66 cfbf
000004c0: ea5b b5be 5e66 e43f 84a8 d7cd 8a54 b53f
000004d0: 7007 0233 3980 ce3f b2dd c50c 541f cd3f
000004e0: b4c8 791c 676e f13f 09d5 6573 9a7d d8bf
000004f0: 51a0 dc81 0dcd d33f 679e d38b 415e c73f
00000500: 12ec b2fb cd0d a1bf 3655 19f6 447c c4bf
00000510: e852 b04b 1aa4 da3f 80dd 2471 53d4 e23f
00000520: db7d 7b83 de51 e03f aaa7 43a4 f7fa e03f
00000530: c0db ed8f 2744 c43f 0c97 b8d8 17fc c0bf
00000540: 7096 9e14 8b1c b63f 78b7 c73b 1d0e cb3f
00000550: 0415 e0b4 319a de3f 80ec 2a37 7f52 d93f
00000560: c022 a057 4fca e03f b8bf 1ccf bfc3 debf
00000570: 2647 16ea 5243 cebf 3e7d fa16 0871 d03f
00000580: f2a9 0253 d07c dbbf 7e23 6964 57da c8bf
00000590: eaef 2dea 1fdd e43f 8020 73d1 50b7 603f
000005a0: 343d 7008 7359 bcbf 140f 11e3 2ad9 f13f
000005b0: 0659 4834 da2e e13f 9f7e 2831 e5df ca3f
000005c0: 9f55 0c6f 95ba d6bf fcca a1d5 ab1e e13f
000005d0: 5a79 7245 ca46 bb3f 9686 d041 f6c1 da3f
000005e0: 9428 dfd7 d5e2 b13f f091 24fd 8d53 90bf
000005f0: a0b0 a56a e69b 8c3f 7071 86e0 d271 9e3f
00000600: 32f3 961b 9e6d d23f 02b7 88a1 4d2e d73f
00000610: 505f ae99 153b 9fbf b952 8b01 ecaa d33f
00000620: 89d5 ea9c bbf4 d9bf c409 b155 a14a cabf
00000630: 3cb1 95b7 733c ab3f ab7e fc2f 3700 ca3f
00000640: b251 7d7c 8bd6 e23f 8906 1427 10af dcbf
00000650: 19fc 4541 bbae dc3f 7af5 6d54 7d0b e1bf
00000660: 973b 2a85 3e54 f23f 24d9 c2b2 2fc7 cfbf
00000670: 85e0 3d0e 4048 f13f dc3d 3146 727c ccbf
00000680: 209a 84d6 398c d93f 3bd5 b1e7 2ba0 a5bf
00000690: 5ded 6beb 3aae c9bf 00d3 97df 19da e13f
000006a0: cbe8 e9f1 baee d9bf a234 c31b 6013 d93f
000006b0: fc3c d8b9 63b5 c43f e4f0 b27f 984c acbf
000006c0: 4196 95f2 e595 cabf 290d 521e 1c68 c23f
000006d0: fa63 5970 de57 d13f c79c 79a6 2d36 c63f
000006e0: 3e41 fe7c 859c d73f 5078 897d e974 96bf
000006f0: d6b6 b602 2986 b23f f492 a69a 92b1 d73f
00000700: 44d7 bc11 d60a ddbf 04f7 7e53 2132 c53f
00000710: 48fd f14e 37a2 97bf 14df c5ee 95da d63f
00000720: 3af0 32bf 95eb d03f 8d63 8840 eefe db3f
00000730: 9e3f d980 dd44 eb3f d88b d3e5 354f c5bf
00000740: 7d4f 4e74 c1a9 d4bf e85f 7e7c 85d3 e33f
00000750: ae24 f09d 8f98 d13f 42e4 14cf 14a7 e03f
00000760: aa29 f71e 8758 b73f e6b1 5810 beda d23f
00000770: 5460 7b94 d382 d33f c670 ae44 df5a c43f
00000780: 36ce b587 663d e13f 2121 d651 959a c83f
00000790: acc5 97b3 595e bf3f a269 aabf 39ef d13f
000007a0: e41e b74a db67 d83f fa6f b7a9 7902 d03f
000007b0: 643f c0b5 5776 e63f 5726 30c2 7957 e73f
000007c0: 8942 35fb 8132 db3f 6733 4bd5 6305 c03f
000007d0: a7a9 3e06 cde4 e53f c834 cb28 4154 d3bf
000007e0: 093e 0f5e 9cf8 ea3f 39d6 10a2 ddea cbbf
000007f0: 2e1e 3c86 5e9b e23f c6c1 03d7 c42b c7bf
