simulation_codes_and_data/white_noise/deseasonalized/deseasonalized_eco_model_planktivores_sig_4.5ppyear50.npy (npy, 63728 bytes, 1 tensors)

array f8 [7950]
-0.019271358062799226 -0.6166743434260877 -0.7866864584656339 1.3066992207348744 -0.2461813675058967 -0.06009422104134565 -0.7768896207808271 -2.63012630992246
1.4650259616714534 -0.6260797083051388 0.40535515440398373 -0.11575199930972771 0.6296709944467846 1.2305232593396989 -0.34341721372593215 -0.6102058944596218
0.7587566664196626 -2.2396852920690624 1.9316054254731414 -1.6080094608330642 1.7686238328942805 -0.0698190153671491 0.578661702136172 -0.7327423324011959
1.8540502507285481 -0.763273638710992 1.0718566915761072 -0.5952177260645514 -0.25227325407552137 0.12578335914583105 -0.5637952295858419 0.14190577663317794
0.6875216506134539 -1.4392179878925189 -0.705319386034514 0.24320570694656618 0.642855345736028 -1.1138560852091846 -0.30540020505000015 0.21999304842747058
0.5230253350838099 -0.10645432626743048 -0.4493571460607313 -0.1564323291171813 0.7289708756809055 -0.042881067702015996 -0.1010861584652254 -1.1094834920484062
7.668306221081389e-05 -0.05992340626753112 -1.7221971837485723 2.349906310999682 -1.4486829317581564 0.0028372618639289637 -0.5970350034558889 1.6580407570761042
-1.5542694261477645 4.072865738011406 -2.8411206100202575 2.6757267245523213 -1.9931962966155827 1.5049051982683068 -1.1311331228512334 0.7446900589041925
-0.5606550075815291 0.9036118058101694 0.4476043123433649 -0.3491342921752961 -0.3884504529474001 0.24295494476370963 -0.5344605970948348 0.5986871414075483
1.0758558137964942 1.794866887449892 -1.328264143912258 1.430903584306289 -0.30948528364602734 -1.0713815466414394 0.6816363616435399 -0.2581845815762148
0.22195367980125424 0.578869829804201 0.47511220946911004 0.835453373620113 1.7346594652941403 0.6201090395521913 -0.23352471400389194 0.6815013952786927
1.7986073154557363 -1.2529156310742513 -0.3201592991121261 0.30942546352990186 0.5325482069707679 0.7680440881456956 -1.6064959232291491 -1.6542312479089976
-0.6823668239519568 0.606112472151735 0.00870087635602479 0.8594676872497551 0.2693678712213596 -1.1841029908415956 0.715613342421771 0.9011343837969426
-0.7210441447114095 -0.5385829749724615 0.8306406629151749 -0.5153515734976124 -0.11720732410274137 -0.9551119026167225 1.570392576296639 -1.5720807910962353
0.6634863560968887 -2.0184346673785702 1.4752429408221759 -0.7500227199190539 -0.5547220344325706 0.047240990524288096 -0.26692301631514154 0.08721739054817826
0.3355428248754577 -0.4381493711041676 -0.9540893519612578 -1.5620020390322735 0.022959165893202516 -1.1632730042099746 -0.8790813617004596 0.28883643665683834
-0.6118869780146281 -0.4022158885322815 -0.16830872590710289 -0.6749713284590269 -0.8540549368991452 -0.6990953187743001 0.32029922478040923 -0.8785335994338613
0.5030858311938856 0.26864555393134093 -1.3569388832227505 -0.3286330377771072 -0.6374202550870542 0.031225099446735294 -0.6730235849705972 -1.2768889571975655
0.785930053260588 0.6619117407282384 0.15745773903226873 0.010471612147957776 0.22547542536161214 -0.7511903341250674 0.9686614670137609 -0.6610284822736308
1.0746172077701022 -1.1670938357842444 0.9864847218835431 0.36673238620935156 0.414816235395418 0.8567720634818294 -0.917714845628208 -0.23280311095770378
0.08080618336544454 -0.5407265310141873 0.2305618494633226 0.9258217933959295 -1.71825085116055 0.8470842000985879 1.7901036385874076 0.20554049994248758
0.1867956915011882 0.6651809114413703 0.47718632978317754 -0.13916306623221492 -0.08099121887626626 0.38101526588052115 -0.33298972562921886 0.1485440941878034
0.12849641640003132 0.5647738289214159 0.055257374751488036 0.7676052527771193 1.4285370627858627 0.2027370119910049 -1.095707557418228 0.9289149825459718
-1.3003551842367638 0.21155161371835698 0.0038967279577803993 -0.873909400111173 0.047983105319324176 0.8991990500700924 0.3936185918030124 -0.24524246850872472
-0.8691894144459056 1.9634604862372012 0.4199080558090015 1.2616149384917348 0.2033852278700992 -0.10923619275182062 0.2555117632687264 0.3314673999260018
-1.1078806954362088 0.7413561904737587 -0.3799835835442561 0.5692602553611006 -0.18989636271189317 -0.5290312354823984 0.7782855795095733 -1.6932957696401698
3.0252761494374862 -2.725627027003272 3.0724267480935037 -1.2200170444012675 1.5722288722835542 0.15836755206811048 1.4095261611518553 -1.129632424879859
-1.825808417721467 0.8920688118179068 -0.7748849759031006 -1.6572192451750065 -0.25284631661621604 1.9705274071006031 1.149623002327095 0.2697027952091502
-0.09758553942023929 -0.648482702832908 0.6020755801480799 -0.33619950214686856 -0.37354117544559406 -0.11236985325785376 -0.23936663166845262 0.012178917034393055
1.7006514979556935 -0.4403144234932549 0.24609603599980923 0.12338620786804866 -0.709749822700696 0.6609589439369872 -0.3553490977455727 -0.27083924009011817
-0.9155850451872124 -0.4221682094066735 0.7506568204615094 -0.7476331394872049 -0.6868809071914697 -0.6131298679366508 0.7738944033346646 -0.045321106225385654
-0.010370699029364827 -1.2365603226516624 0.6341909608811576 -0.16285547725740718 0.11244442457569692 -1.412370786419608 0.2548620243741221 -0.8405518093884045
00000000: 8054 84f2 debb 93bf a483 29d5 cbbb e3bf
00000010: 581c 6a14 892c e9bf 523d 2c71 3de8 f43f
00000020: dc43 29fd de82 cfbf 9033 1a74 abc4 aebf
00000030: 3660 3b9f 47dc e8bf a0ba aba9 7f0a 05c0
00000040: acb7 1210 bf70 f73f 6883 fb4f d808 e4bf
00000050: 6c87 dbbe 56f1 d93f 7a5d 7b4b eca1 bdbf
00000060: 8a70 0cc9 4326 e43f 244d 3d28 39b0 f33f
00000070: 4886 7531 8cfa d5bf e2f9 1083 ce86 e3bf
00000080: 309f 7c0f bc47 e83f 9126 561f e0ea 01c0
00000090: d4ee 3217 dbe7 fe3f 54fc de20 68ba f9bf
000000a0: 4c50 1381 484c fc3f 3a0d a4b3 a8df b1bf
000000b0: f2eb c38b 6584 e23f 4cda 410c a072 e7bf
000000c0: c050 8098 30aa fd3f 4434 85d6 bc6c e8bf
000000d0: 1917 c533 5326 f13f a74b 6e0b 060c e3bf
000000e0: 323b fab7 3e25 d0bf 70c8 f44a ab19 c03f
000000f0: bac8 164b 9c0a e2bf a861 e0ee f729 c23f
00000100: b7a7 9567 2d00 e63f 3f03 dd70 0907 f7bf
00000110: e118 08f6 f991 e6bf ac9d c456 5d21 cf3f
00000120: 26d7 bf5f 4592 e43f dbc8 26c2 5ad2 f1bf
00000130: 9769 384d ad8b d3bf 40f2 2b72 bb28 cc3f
00000140: ce42 a5a0 9fbc e03f 9219 d639 9740 bbbf
00000150: cc80 a379 44c2 dcbf 2436 cc7c f905 c4bf
00000160: ac26 d9ba ba53 e73f 08a2 cbde 81f4 a5bf
00000170: 00b9 af50 c8e0 b9bf e7cb 1cc3 71c0 f1bf
00000180: 0090 37fa 1c1a 143f 0031 5edc 47ae aebf
00000190: 2c6a 57a2 1e8e fbbf d842 13ae 9bcc 0240
000001a0: 7fcb 6227 ce2d f7bf 00ee 4d5d 2b3e 673f
000001b0: 1821 cd26 e91a e3bf 2e3b b1be 5587 fa3f
000001c0: 2ba3 279e 49de f8bf 1508 e750 9d4a 1040
000001d0: 863a 4071 9dba 06c0 24e2 b769 e367 0540
000001e0: 4f8e c7cc 21e4 ffbf cd48 2279 1714 f83f
000001f0: 2818 a10b 1f19 f2bf 54cb 143f 80d4 e73f
00000200: 72d7 3cc5 e2f0 e1bf 687e 474e 63ea ec3f
00000210: 750d c48e 8ca5 dc3f 3685 b35b 3758 d6bf
00000220: 4ea1 e149 5fdc d8bf f1af 14cb 2519 cf3f
00000230: febb 301c 4d1a e1bf 5c32 9cef 7128 e33f
00000240: 817a f795 b436 f13f 6054 6457 c6b7 fc3f
00000250: 64d7 28e7 9140 f5bf ee31 2528 fbe4 f63f
00000260: 1497 f65c 9bce d3bf 5cce 05fa 6024 f1bf
00000270: f6bf 200f f7cf e53f e2e1 8c9f 1886 d0bf
00000280: 3893 fc69 fa68 cc3f dccd 7405 1a86 e23f
00000290: 8468 660a 3d68 de3f 0900 a1b6 08bc ea3f
000002a0: b229 9248 2ac1 fb3f 8a94 9ae9 eed7 e33f
000002b0: 0b2c ba48 23e4 cdbf b3cf 9c03 dcce e53f
000002c0: eea8 e376 18c7 fc3f 1cc7 c142 f10b f4bf
000002d0: 6999 cc6d 7d7d d4bf c446 9a75 a0cd d33f
000002e0: d073 8f89 a20a e13f d619 0f32 d193 e83f
000002f0: 09d3 b611 35b4 f9bf 88a5 5c2f bb77 fabf
00000300: 2bf8 17f3 f2d5 e5bf 78dc b2fb 4565 e33f
00000310: 0053 2adb c3d1 813f 469b 1661 c280 eb3f
00000320: cb49 5fbd 523d d13f c42a 4cfa 15f2 f2bf
00000330: 560c c9f3 4de6 e63f f8af 76c6 17d6 ec3f
00000340: dc3f 902b cb12 e7bf 2e0d f65c 123c e1bf
00000350: 9759 3eba 9b94 ea3f 0ca9 4395 c27d e0bf
00000360: 7079 df97 4c01 bebf 0a4b 38d6 4690 eebf
00000370: 3934 51f7 5320 f93f a8d9 0630 3e27 f9bf
00000380: 38e8 18bd 473b e53f 5e07 2c13 c125 00c0
00000390: 1ac7 8757 989a f73f d2e5 a9a5 2f00 e8bf
000003a0: 7145 886c 48c0 e1bf a038 aa9a f82f a83f
000003b0: a1e2 6746 4415 d1bf aa00 0c00 e153 b63f
000003c0: ccd7 cf9c 8879 d53f 89f1 e9a8 a30a dcbf
000003d0: 7d55 8464 e687 eebf e6dc 9ed9 f5fd f8bf
000003e0: 1075 9e8a 9b82 973f 976c 5627 c49c f2bf
000003f0: 14da 603c 6f21 ecbf 1c65 55d2 4b7c d23f
00000400: a479 edff 9394 e3bf f05f cbb5 e7bd d9bf
00000410: fc82 b3ec 238b c5bf a403 af78 5d99 e5bf
00000420: 7603 df04 6b54 ebbf 9883 5d25 fd5e e6bf
00000430: b76c d751 c87f d43f dd2d c07e f21c ecbf
00000440: ffe0 0175 4719 e03f 5e75 161f 7d31 d13f
00000450: b4cc e18b 05b6 f5bf d8d1 68dd 5208 d5bf
00000460: 2005 ad29 bf65 e4bf f096 c0f3 78f9 9f3f
00000470: 2255 dcc1 6889 e5bf e997 7c1d 236e f4bf
00000480: 1454 76c8 5626 e93f d684 e887 612e e53f
00000490: 32a6 d23f 9327 c43f 80eb b1fd 2372 853f
000004a0: 846a fdf4 60dc cc3f 686e c44f c009 e8bf
000004b0: 0706 3755 46ff ee3f 50df 2234 2527 e5bf
000004c0: 7b76 31d0 a131 f13f 86e7 0096 6aac f2bf
000004d0: 88ca 4f68 4891 ef3f 22ce 491d 8b78 d73f
000004e0: d2e1 3765 598c da3f 14fd 183f ad6a eb3f
000004f0: e4db 2086 eb5d edbf f835 fc09 7ecc cdbf
00000500: 8081 deca b6af b43f 8622 d9b9 a14d e1bf
00000510: 403b 93f9 0c83 cd3f 21e8 9106 55a0 ed3f
00000520: 8bf0 c09a f47d fbbf 5637 0c53 501b eb3f
00000530: b2ef 82b6 43a4 fc3f 24d4 a0ae 264f ca3f
00000540: ea01 04d5 ebe8 c73f 940d 927a 2949 e53f
00000550: d416 2188 388a de3f 16a4 2369 18d0 c1bf
00000560: b034 562c d7bb b4bf 06f3 8eda 8d62 d83f
00000570: 07d1 5e23 b44f d5bf ba78 462d 7e03 c33f
00000580: c9b0 0b11 9272 c03f 7255 9b90 a012 e23f
00000590: 2c46 d7d2 b14a ac3f 1c4c 1de4 3890 e83f
000005a0: 7aa0 dcad 49db f63f 0c56 1852 49f3 c93f
000005b0: 1876 d1a5 0488 f1bf 5b94 d9e9 abb9 ed3f
000005c0: feb1 d73c 41ce f4bf 1d0e 2b8f 1f14 cb3f
000005d0: 0080 7be4 07ec 6f3f 799f a4d8 10f7 ebbf
000005e0: 74cb 36d8 3d91 a83f 68a6 1416 3dc6 ec3f
000005f0: 880e b908 0c31 d93f 8aea eaee 1a64 cfbf
00000600: c062 a251 66d0 ebbf 5808 f68a 556a ff3f
00000610: e2b3 c109 c6df da3f 0c79 4f25 932f f43f
00000620: d185 18f3 8608 ca3f 709b 6833 e7f6 bbbf
00000630: dae0 be02 4e5a d03f 44d4 970a c336 d53f
00000640: c44a ac1b e1b9 f1bf bcb3 189e 30b9 e73f
00000650: c6b9 15aa a651 d8bf 7c08 7648 6137 e23f
00000660: 350c bd25 864e c8bf 35b3 dee9 d2ed e0bf
00000670: 1225 de28 b7e7 e83f 72f4 104e bd17 fbbf
00000680: 5c9f 59fb c333 0840 0495 f08a 15ce 05c0
00000690: 7c56 9379 5494 0840 a241 a497 3085 f3bf
000006a0: a68e 4476 d927 f93f 80a7 7050 6345 c43f
000006b0: ed0e d04d 6b8d f63f 43c3 1573 f912 f2bf
000006c0: da00 2ee3 8236 fdbf 7c43 91e4 d38b ec3f
000006d0: 4f4c b593 dbcb e8bf 5e41 c553 f883 fabf
000006e0: 24f7 3151 a22e d0bf 7ae6 15bf 4787 ff3f
000006f0: 5896 db16 db64 f23f 9809 4483 cf42 d13f
00000700: a858 5fac 5dfb b8bf 810c 16cc 5ec0 e4bf
00000710: 7099 ce01 3444 e33f febe a9ea 4a84 d5bf
00000720: eae2 0f3f 19e8 d7bf 387e cc4c 45c4 bcbf
00000730: f084 62d7 90a3 cebf 6046 e892 42f1 883f
00000740: 51cf 5958 de35 fb3f 7614 378c 1c2e dcbf
00000750: 88af 252d 1380 cf3f 281b 920f 3d96 bf3f
00000760: d4eb 9a42 45b6 e6bf 68a8 065f 9326 e53f
00000770: edbd 5e24 0abe d6bf 7246 aa1b 6e55 d1bf
00000780: f124 3902 794c edbf b100 34cf cd04 dbbf
00000790: 4ed9 cc73 6105 e83f 741b 7055 9cec e7bf
000007a0: 264b 14ab edfa e5bf 8ca3 5f87 c29e e3bf
000007b0: 7827 1c32 bec3 e83f 30f7 1cfa 5334 a7bf
000007c0: 809d 57a9 3b3d 85bf 1f1f 157a f3c8 f3bf
000007d0: 8ce8 8cd7 4a4b e43f bac3 65c2 72d8 c4bf
000007e0: 688f 2b66 28c9 bc3f e1f7 171c 1299 f6bf
000007f0: 2a78 ebce a84f d03f 9d56 7de8 cce5 eabf
