simulation_codes_and_data/white_noise/deseasonalized/deseasonalized_eco_model_planktivores_sig_0.1ppyear50.npy (npy, 63728 bytes, 1 tensors)

array f8 [7950]
00000000: 60eb 90a7 f97a 94bf 7cca 3fe9 b361 8d3f
00000010: 8041 c57f e9cb 643f f0bc fabe 63f5 7e3f
00000020: c865 3506 9377 9bbf 9044 342f d833 9b3f
00000030: 20ff 6321 2bc0 91bf 145c ca68 89c8 973f
00000040: 74a9 2b41 0490 91bf 2073 bd6a 9fe7 733f
00000050: 9435 4ab5 0076 903f 00e0 c507 659b 49bf
00000060: cc42 7130 d254 a03f 20f1 a6b9 bfa3 b0bf
00000070: a010 1471 88b0 973f 4893 a3ff d47f 9abf
00000080: 50fa dacf cbee 8b3f 20a6 2230 9a25 7fbf
00000090: c866 abfe 0bd2 94bf 5045 3ef2 a8f3 8dbf
000000a0: 4031 af7b 0869 713f 70ac f6d6 7382 853f
000000b0: 40d4 d9cd 443e 713f 80ea 65aa 9a9f 8b3f
000000c0: 900d 027f 4aec 90bf f049 1749 1472 903f
000000d0: c88c e17f 9dd2 933f d86c ffb2 0f08 933f
000000e0: 80d4 241c a22d 7ebf f0fb f3e6 abe3 883f
000000f0: 60e0 b3ae 0adb 78bf a010 153e 70ae 83bf
00000100: 586c f09d 3309 99bf 0005 770c 06a8 9dbf
00000110: d0c6 0b85 c4b6 8c3f c0f7 177c 9918 99bf
00000120: e0ae 8dcd 5d32 733f 00c2 cce2 14e5 7abf
00000130: b0ce dac4 fb87 85bf d837 7413 ef5a 98bf
00000140: 0056 c56f e3a8 5a3f c04b ed30 5b11 683f
00000150: 2018 06f4 42e1 843f 8007 a745 c651 73bf
00000160: 4057 916c 2b6a 81bf a059 ec15 5e93 92bf
00000170: e09d 5564 fe4e a23f a0ab e1b1 15f2 913f
00000180: d031 6e64 74b9 963f 40d9 7530 e9c8 ad3f
00000190: f054 1075 f771 a63f aa47 d674 1ffe a3bf
000001a0: c830 f1f0 1901 9d3f 000a 992b 01e1 66bf
000001b0: b84c c375 accd 98bf c036 ea4b 4ef5 743f
000001c0: 10cf 683e 540d 99bf 3ecb 992d 2256 a73f
000001d0: c479 104b edb9 943f 408b 2cb9 8d5c 743f
000001e0: 00e6 813c f3a6 4ebf 944a abac b056 95bf
000001f0: c0f1 668e 0a9f 7d3f 60e1 7904 9655 893f
00000200: c013 36e5 10f4 6bbf c071 6874 40bb 7abf
00000210: 00cc fbdd c9fe 57bf 0049 7542 ee16 52bf
00000220: b4df 7f12 4751 a03f 4005 f625 4911 6fbf
00000230: 00a6 9b08 19a8 803f 80e0 0822 d1a5 7dbf
00000240: 000e 64de 3b2e 70bf c0c3 5388 62ac 85bf
00000250: 4021 330a 597c 69bf 7081 8220 67b3 8fbf
00000260: f0e5 0a9e 481a 81bf 007a 8484 f470 3d3f
00000270: 804e 7d9c 1106 6abf 18d4 46bc ec1c 913f
00000280: a02c 75cd 9771 813f 2436 db5e 4824 a1bf
00000290: 5c94 4385 9b5f a03f e8c5 1c9a af63 a43f
000002a0: e8a1 d123 2d90 9ebf b0d6 43f9 ce34 81bf
000002b0: bcb8 278b 8aca a1bf f8d4 c9a8 4bc5 98bf
000002c0: 3868 51d3 5ab8 9abf c82b 1889 2f37 983f
000002d0: c0b0 fa7a 9c2e 813f 70b9 8bce bd16 a53f
000002e0: 4050 ea08 0d5d 73bf d021 d30a 120f 933f
000002f0: 0039 e600 df60 7d3f b87b afc2 960b a13f
00000300: c07a 2060 e2bd 82bf a042 769b 0f20 853f
00000310: 00f8 70f4 f920 22bf 60f7 f793 2a4d 9abf
00000320: c03d 4859 4a25 97bf e493 db26 c6ad a33f
00000330: 4840 d08f de64 9abf 2ebd b974 c461 a23f
00000340: 8090 9b81 8349 6f3f 7888 620b a7dc 86bf
00000350: 906a ab1f 02ce 8a3f 9cb9 dcd8 74e1 a0bf
00000360: a088 165c 41af 75bf ac44 cce7 2385 98bf
00000370: c0db 6edc f38f 89bf c03d 5cfb 9877 7a3f
00000380: 8062 54dd 56a7 6c3f d074 f6ed 8922 933f
00000390: c8ed 44e3 e19b 95bf 2a8a e02b 844b b03f
000003a0: 006d 8bd7 5e7f 603f d050 f085 60fc 893f
000003b0: 20b7 2e06 d90b 7fbf 8065 b37d 8070 76bf
000003c0: 5085 6e23 2942 823f 6042 77f9 420c 833f
000003d0: 787f 571a 8f65 9d3f 40b6 2efb 9b66 623f
000003e0: e0f9 72e8 a46c 89bf 40b3 9e80 fb66 a23f
000003f0: e072 5ae2 9ebc 793f 40e7 3927 bbdc 87bf
00000400: c0d4 dafc e95f 723f a049 d07d d9b7 95bf
00000410: 5017 78c1 046d 903f d8a9 402a 984a a23f
00000420: e042 84f1 84f9 923f 908e 4cfe e094 95bf
00000430: 18bd fe89 e579 9f3f b038 f416 4f82 893f
00000440: d0ae 0ef8 38ea a33f 7c47 21a7 e6ab a63f
00000450: 206d f951 4ce3 9e3f 70c9 2724 5fab 983f
00000460: 908c 3000 661c 943f 00bc 95a0 0d31 4c3f
00000470: 4878 db28 8730 a73f 50c4 f446 bd98 903f
00000480: 00b4 73eb f9f2 633f 002e 87ca 1902 623f
00000490: 80d0 1f7a dc57 643f 003f fad8 d5eb 5cbf
000004a0: 80b9 13be 4bc1 813f 00d3 b15b 9453 8e3f
000004b0: 00b0 f94f e0e7 123f 903f 5db6 0941 62bf
000004c0: 203a 1fa1 ede1 94bf 7870 b310 b5c0 813f
000004d0: 98c4 baf4 fe77 9bbf a83c 427d 6143 9a3f
000004e0: 3814 5257 5286 923f a80f 9589 a4a3 a2bf
000004f0: 6098 3a2e 660c 743f 5c72 e14f 3cfb 913f
00000500: 706f f06d 56b9 803f c0bb a9b0 3f49 57bf
00000510: 80a6 855d 3997 66bf a006 61a9 26f1 7abf
00000520: 5c78 dfd1 324e a03f 681b 37c0 9152 a1bf
00000530: 409c 1e5a 796f 8abf 80ca d757 7139 8d3f
00000540: e046 bebc 8150 87bf e0a9 6fea 3f66 9d3f
00000550: b8ac 75ed 7514 9cbf 2830 cf87 9842 99bf
00000560: 80fb 039e f04c 97bf 98fe 7faf bce0 9abf
00000570: 00b7 fbc2 8f2c 4cbf e0e7 eac2 3642 75bf
00000580: 205c ca4a d170 7abf 503e 8bae 1e69 8a3f
00000590: 0092 9591 81e8 9e3f 00d0 ad62 11f2 2d3f
000005a0: 20f6 8f24 1889 a1bf a0de 8c22 acc2 7f3f
000005b0: 68a7 9eb1 af01 97bf 809f e115 0ae1 5a3f
000005c0: 2826 4206 10c3 903f a833 8f6b a2da a23f
000005d0: f866 4a9d 5b89 9dbf 60c0 6013 54c7 793f
000005e0: 4009 4a23 b7c0 7f3f 6012 3e3f b6f8 8cbf
000005f0: e01d 6528 f3c5 8abf 0086 ff43 ba88 60bf
00000600: 8077 dd04 843a 7c3f 0096 19db 31fc 68bf
00000610: 20b0 037b b9a8 86bf 20a3 7136 bff6 87bf
00000620: 9860 b667 ad36 a1bf a0df cf4c 906e 86bf
00000630: c091 2bec ce6f 843f 001d 6434 10e6 75bf
00000640: c046 b743 5393 973f 80ed 0a9a 0c74 483f
00000650: e86a 1a61 91cc 913f d465 2bcb 1164 82bf
00000660: 6441 798e 2c82 a13f 2882 4d5b e70a 8fbf
00000670: d01d d282 8c6d 87bf a8df 8246 b3fc ab3f
00000680: c04b b362 f729 62bf 901e 6690 661c 943f
00000690: 0060 a75d b813 4ebf 30b9 c8a3 c0f7 803f
000006a0: 1cb7 25ba 725b a2bf 0085 455d 1048 6bbf
000006b0: c069 2a60 f09a 7c3f 7c90 1d8c 05de a6bf
000006c0: 607d 8455 005e 863f 70e8 bc60 1fdc 89bf
000006d0: d0be 619a d500 943f b084 10e5 892f 853f
000006e0: 70c3 aecf 5430 8e3f f031 786b 8fb3 843f
000006f0: 7038 c768 57b2 9c3f c46d dd2f 6975 a93f
00000700: 00ab fa55 0e69 873f a000 c093 5dd1 713f
00000710: c04b 5759 8a70 9f3f 10f2 3442 a508 93bf
00000720: 20e0 4e07 d0b7 9dbf 9090 eac9 84bc 833f
00000730: b067 b522 ee79 a93f d0f8 8361 4308 81bf
00000740: 5878 4387 e074 923f 3020 a0c0 efeb 80bf
00000750: 808f c22d 3a29 99bf 8851 fea3 8649 9abf
00000760: b0ab 3b4c 201b 9c3f a0b1 8ae3 b030 96bf
00000770: 8005 ddf2 bd32 6bbf a052 501d dd20 7ebf
00000780: a4d3 c8cb 28a6 a1bf d864 7e68 2ba3 99bf
00000790: 2455 5575 1941 abbf 98b2 e133 5503 a2bf
000007a0: 8077 c656 f7f3 833f 00ec f073 5b44 3fbf
000007b0: 58a3 1707 b7b8 a03f e063 3b65 8d8c a53f
000007c0: 00f8 3fa5 b999 73bf 6003 e0e3 846c 8fbf
000007d0: 004f cd4a 3276 93bf 576c bd03 f70b 973f
000007e0: 807a 389f 5f34 92bf 2234 7408 b96a 9a3f
000007f0: ac13 4d72 cef1 a1bf 208a 789e 3591 633f
-0.020000363209173755 0.01434650950975435 0.002538639119087971 0.00755824054037578 -0.02682332730669204 0.026564958459009136 -0.017334627068520736 0.023225924511816556
-0.017150942304320307 0.0048595645165192825 0.016075144829803614 -0.0007814639389343014 0.03189713326776697 -0.06499861032984144 0.023134357358700286 -0.025878265479053725
0.013639061241858347 -0.007604219719874489 -0.02033251516227244 -0.014624900715520056 0.004250558030389151 0.010502724645297529 0.004209774747882256 0.013488014531266801
-0.016526378633455574 0.016060177765959638 0.019358120851745736 0.01858543901458351 -0.007367738000813806 0.0121529989105493 -0.006068269470453996 -0.009610058683968525
-0.024449163927880185 -0.028961271773146002 0.014020476637117169 -0.024507902335237253 0.004686705034014443 -0.006566125474634976 -0.010513274140385803 -0.023784385263802083
0.0016271802006334601 0.0029379635883883537 0.010195277282729676 -0.004716658115684669 -0.00850328373978082 -0.018140287483299766 0.035758924243790124 0.017525042516733813
0.02219182837466055 0.058173453488893134 0.0438382463836805 -0.039048178684552085 0.028324513750974473 -0.0027928374154566615 -0.0242220827938808 0.00511675438486997
-0.024464908894699156 0.04557902151727554 0.020240504938664264 0.0049710784976778055 -0.0009354293515705936 -0.02083850911987868 0.007231751666435249 0.012370273601150117
-0.003412278174155209 -0.00652623345970621 -0.0014645549162508598 -0.0011040999177863164 0.03187009907554686 -0.003792422168488102 0.008133121085353245 -0.007238213468149124
-0.003950342046894928 -0.010582704339386129 -0.003111051469748244 -0.015478902511234266 -0.008350913355900297 0.0004492375342283472 -0.0031767219515275724 0.016711901656624034
0.008517442662784369 -0.03347994001306301 0.03197942735440826 0.039823043406055636 -0.029846864043436755 -0.008401505453075359 -0.03474839161559504 -0.02419012277319596
-0.02609388270170873 0.023648016684130885 0.008389685156850013 0.041189128363714356 -0.004727412144934162 0.01861217680996835 0.0071724616121982 0.033291541352574894
-0.009151238020476682 0.010315057689497309 -0.00013831187445306758 -0.025684991151130432 -0.02260318918166404 0.03843516563737362 -0.025775411155393863 0.03590215611336088
0.0038192337495833173 -0.011163048777522486 0.013088242141227086 -0.03297009608501186 -0.005294089614297587 -0.023945389769384803 -0.012481599011023081 0.006461713395551738
0.0034977623532877478 0.018686442517368118 -0.02110245656625212 0.0636522872087332 0.0020138599760294307 0.012688402259336234 -0.0075796582704421855 -0.005478383939782616
0.00891525401476892 0.00930073093232514 0.028707729323172754 0.002246193552727843 -0.012414253562721578 0.0359419435984365 0.006283398286225789 -0.011651479849422608
0.004486001982219878 -0.02120914297490517 0.016040872867982003 0.03572536006716448 0.018529965630537215 -0.021075740357572814 0.030738436267424424 0.012455575836181815
0.038896351128043016 0.04428025045548531 0.03016394853908111 0.02409123094725757 0.019639581452918053 0.0008603397883869546 0.045292114007438544 0.01620765443403044
0.0024351960415658347 0.002198267339030613 0.0024833017532675528 -0.0017652119021568935 0.008669463861647797 0.014807852791116627 7.211977571736083e-05 -0.002228278130964108
-0.020393097838502183 0.00866834122864922 -0.02682493561468799 0.02564766242045083 0.018090521411540744 -0.03640474490614959 0.004894637244126171 0.017559950233009367
0.008166003446653497 -0.0014212724660429416 -0.0027576561371248087 -0.006577635786074204 0.03184660732198161 -0.033833079065110294 -0.01290793234131915 0.014269719594243613
-0.011384023258674103 0.028710364040230973 -0.027421801203143942 -0.02466810540117606 -0.022754439968589946 -0.026247928821247685 -0.0008598043404768052 -0.00519009963198333
-0.006455247447454432 0.012895812703759862 0.03018381548953819 0.00022846662735853673 -0.03424907156293622 0.007754013445086777 -0.022467370239304257 0.001640567635627449
0.016369104749662494 0.03682429850559937 -0.028844291186579135 0.006293610020335988 0.007752147085400118 -0.014146255307204203 -0.013072871847397971 -0.002018321800264955
0.00689174241946755 -0.0030499433276414134 -0.011064004007913353 -0.011701101159091787 -0.03362028018017432 -0.010953070968738932 0.009978882391302402 -0.005346358584808586
0.023022938736011467 0.0007462560207253527 0.017381927062710384 -0.008979929936162735 0.034196274177363845 -0.015157515977706273 -0.011439416639645567 0.054662325246169374
-0.0022172767399779303 0.019639589847001704 -0.0009178781722836149 0.008285050390523269 -0.03585394403749673 -0.0033302611938529347 0.00698369881379296 -0.04466264090913882
0.010921480760372304 -0.012626881732661327 0.019534432933538792 0.010344579031939055 0.014740622127506348 0.010108108966073254 0.028024068613199338 0.04972389897622123
0.011430847166896907 0.004350057159172277 0.03070274515432536 -0.01858766762346603 -0.02902150196652553 0.009636914646144384 0.04975837873162392 -0.008316542066037519
0.018023975616295068 -0.008262513223613238 -0.024571332018822556 -0.025671104201664657 0.027447228100679844 -0.021670116317794474 -0.003320094102406912 -0.007355560043852322
-0.03447082030871876 -0.025036504986563596 -0.05323104436198836 -0.03518167742081352 0.00974267228667336 -0.0004770968698186162 0.03265926324440355 0.04208795414678668
-0.004785275628817587 -0.015343702511019408 -0.01900557118945212 0.022506579974429588 -0.01777791413598573 0.02579774011706005 -0.035047961666840294 0.0023885771986596055
