simulation_codes_and_data/red_noise_phi053/deseasonalized/deseasonalized2.5_corr_eco_model_planktivores_sig_4.5phi0.53ppyear50.npy (npy, 64128 bytes, 1 tensors)

array f8 [8000]
0.19096631073625536 -0.23476200648345963 0.13179968607984616 -0.1226588292802108 0.05100274389240622 -0.04741094158854864 0.023740415269534854 -0.02327749935672671
0.022392803321817006 -0.006976492639914594 0.021412577379870845 -0.014074292707673186 0.018397922285490947 -0.007374071326853526 0.0029751913520039697 -0.0017580619644292084
0.003031546797827245 -0.01073051416629589 0.013088829209334657 -0.005795968966989612 -0.010495844392085785 0.005167727495275165 -0.007008799421055062 -0.010768310249588464
-0.006103729232512484 -0.002061654981476091 -0.008250009447259399 0.006473404504687974 0.015653537629893605 -0.007848898051832254 -0.0018796436010346529 -0.007155445542282035
0.000369851852571601 0.004079450918579919 0.010320691683969763 -0.0057092034485800025 -0.013382459686778203 -6.683018167175092e-05 0.008366796557729983 0.00322558083134894
0.013286650109122222 0.008194932510313613 0.001421302628342891 -0.0008349934210045151 -0.005600739999090221 -0.021186111286647935 0.01199120077932575 0.03034265293475391
0.042194502773591325 0.09197121141535586 0.14298044245058583 -0.284870804850733 0.0922430340727603 -0.14466423710502974 0.07112264356799503 -0.04621181693336923
0.028900233980211687 -0.01460641266070789 0.010025445547980932 -0.01760804170434524 0.005810576749482932 -0.008069488584667023 -0.005307881020526234 0.007569904828157503
-0.01066105804396894 -0.004319987186204521 0.008568418692217666 0.005263981464819628 0.007902278135235558 0.005668810021617621 0.0005665881291551655 0.0015880939791912685
-0.005688052186288234 0.0027106764837810937 0.005234231053584004 0.00889912357001707 -0.0015984130044929823 -0.01444130177968811 0.001321029964964665 -0.005664950066686464
0.0009925984010742406 0.012313596252963022 0.009621284636052357 0.017238156128012022 -0.0028644389699236106 0.007961753326589494 -0.005239796813046149 -0.01519867284568982
-0.008439837728175026 -0.011780996355875706 -0.0010627047532666134 0.009221931213561352 0.0006421208866758121 0.004302864101037751 0.0044698606430282894 -0.003807146483854995
-0.003137825638830971 0.004637935708174418 0.01972638214975045 0.03973477506623324 0.07094040392546896 -0.14308917530151483 0.05448458928628619 -0.07618286351320785
0.022396009599877184 -0.02501630001609012 0.023077288104363575 -0.012605528137289962 0.023565470200158825 -0.003858895078463001 -0.01761046851043606 -0.0009874319927277997
0.006137875074539584 0.008573352287824923 -0.0035058185476876114 -0.003839335331351626 -0.009081066311566785 0.01637541599192134 0.012813983183558517 -0.017572977310556348
0.0036363141992641207 0.005043801027984449 0.008787590699261091 -0.006747649002613987 -0.017254560949180542 -0.004642333811481186 -0.012744699996295739 -0.0033723175511850556
0.014836976157796111 -0.0060570560196114565 -0.013953180882530045 -0.0001827740182570592 0.0013671143215456816 0.01488390243162882 0.010830536884181952 -0.0007868221948574838
-0.00634414648958101 0.002388880213230471 0.014113047821705388 -0.008229123215807238 -0.0060959766202876575 0.0054285591628811525 0.006318302463085346 0.007911189563827997
0.0016884053538995247 0.009583076189512124 0.015532146326783708 0.016557869498494138 -0.0009381225893921874 0.01947894618235929 0.06459945727519646 -0.127921894843411
0.05174353426097199 -0.07195242895596861 0.03268975777337735 -0.03203782488767688 0.014826228242752454 0.0035475159987016086 0.0063184454003340496 -0.006596624655081512
-0.0033294309207027167 -0.01593804371060749 0.014672158198195423 -0.0008346790927223069 -0.014492618003376992 0.001286266796207594 0.01894512356598317 3.7729368626768234e-05
0.002224032460157635 0.004249669374499332 -0.007336750831060099 -0.005983932784455026 0.0062853933472485635 -0.0030176500097679054 0.005513920812123499 0.002406063119917659
-0.0026040773204976247 0.007115293218795032 -0.013297137753272958 -0.0041673432858777 -0.009812294822705389 -0.008868133349189233 0.00015795070901584995 -0.0014614929797537451
-0.008345620595722927 0.004981462956605134 0.0019325518868770486 0.00033756639825871515 0.005425383006854412 -0.003643785562355395 0.011632960307201956 -0.00017476505186420077
-0.0011052218006540049 -0.011334997883704678 -0.01049029089599715 -0.01995692057126547 0.007240863577712364 0.026785673798572995 0.04941306963122355 0.07546925928562093
0.10209524305900786 -0.18722501146617027 0.05500590269235445 -0.09488864247136429 0.014078187677711879 -0.022563210038370307 0.019151220643313316 -0.0028153718334250066
0.01654752832796666 0.0034543189389603657 -0.0027908184461925556 0.002718798843495629 0.007324291411926059 -0.014182760671055616 0.010674613221710053 -0.0002653941876155641
-0.014129789729912468 0.00616301337044034 -0.009301829211395093 0.0038583876651158144 0.012568419181277532 -0.011270645794228887 -0.009257728614020216 -0.004243733066125133
-0.016540509160411165 0.0037921936266971656 0.012364688197387064 0.00602020551996843 0.0005970690629359954 0.00424557196226219 -0.005352895896342663 0.00372027712021189
0.007976211632092528 -0.004252462577649219 -0.0029172423956961846 -0.01681735137072099 -0.014027524044756906 -0.010372051510347369 0.010756319209175663 0.012772939128158717
0.000874302055017484 -0.013175949922396346 -0.02385554552776023 -0.00856996617622402 0.007027585445869566 0.004702416613057481 0.007726305650783194 0.036966442089114315
0.06121328876613724 0.10415824626187287 0.15113405573981636 -0.29559355687514 0.08621472234464478 -0.10791729168770053 0.047381378665373286 -0.0604075154888187
00000000: b0ff 9f85 9571 c83f 564b 1872 ae0c cebf
00000010: 3c02 abe6 cfde c03f aafb 52ac 9166 bfbf
00000020: 305d 0c1a 081d aa3f 00d6 3037 3f46 a8bf
00000030: 8056 b44c 684f 983f d813 e189 0ed6 97bf
00000040: f85a bb97 23ee 963f 60e0 aafb 6193 7cbf
00000050: 1049 47be 2ded 953f 207a 2697 fbd2 8cbf
00000060: 1844 1faa e7d6 923f 00cd fe32 4634 7ebf
00000070: 0062 ccb1 6d5f 683f 8066 0fa9 d8cd 5cbf
00000080: 0076 4b4b 9dd5 683f 00dc 4e3b e1f9 85bf
00000090: d019 2deb 50ce 8a3f 60f1 9692 83bd 77bf
000000a0: 2068 4363 d87e 85bf 80b9 6349 c12a 753f
000000b0: 2032 c344 42b5 7cbf 4060 d722 b20d 86bf
000000c0: a019 ff56 3900 79bf 800c 1397 9ae3 60bf
000000d0: 4030 2486 61e5 80bf 403b 434a db83 7a3f
000000e0: b896 bf20 7b07 903f 60be 8943 1513 80bf
000000f0: 0064 daf2 cbcb 5ebf 4083 7a49 074f 7dbf
00000100: 00fc 749c 153d 383f c0b8 7e44 9db5 703f
00000110: 00ba 09ca 0323 853f 40d7 90a1 8862 77bf
00000120: 80d9 8e55 4368 8bbf 0080 56c7 e584 11bf
00000130: c0ae b36c 9c22 813f 00c9 cc85 886c 6a3f
00000140: 805e 89fd 0736 8b3f 606f ff38 81c8 803f
00000150: 00e7 9c13 6049 573f 0066 c1b7 6e5c 4bbf
00000160: c065 1232 cdf0 76bf 601a 6cdc cfb1 95bf
00000170: 20ec 7eb9 d78e 883f 8055 1df8 2412 9f3f
00000180: a894 f792 849a a53f 1cd4 33e1 6c8b b73f
00000190: f87c 25e2 2e4d c23f 7ad2 9ac1 523b d2bf
000001a0: 7456 a04e 3d9d b73f 8829 a293 5b84 c2bf
000001b0: b02d 21f4 1735 b23f 68ca d544 13a9 a7bf
000001c0: 60c2 2adf 0598 9d3f e057 8485 f7e9 8dbf
000001d0: 101f 0d86 3888 843f 582b 11ad d707 92bf
000001e0: 0043 c2d1 d4cc 773f 7060 886c bc86 80bf
000001f0: e0b8 4e76 b7bd 75bf 4078 bbda 9e01 7f3f
00000200: e0e8 1dfd 76d5 85bf 0034 f1ba d5b1 71bf
00000210: f0f8 7db0 518c 813f e076 cf43 af8f 753f
00000220: 70e4 3cd1 112f 803f 40bf 669a 2d38 773f
00000230: 003e 15be e290 423f 80cc 07ed f204 5a3f
00000240: a087 e3e1 5a4c 77bf 00cd 215b b334 663f
00000250: 001c 1e33 7d70 753f 70fe 9125 b439 823f
00000260: 006b 1be5 3a30 5abf 20ea d7b6 6693 8dbf
00000270: 80a0 c71f cda4 553f a079 5174 2134 77bf
00000280: 005a ec6a 4243 503f 80f9 9ee9 de37 893f
00000290: 70db dbf6 52b4 833f 58ab 4013 e1a6 913f
000002a0: 008b 4ff6 2977 67bf 208e 4071 404e 803f
000002b0: c00b 323f 5376 75bf 60cb 8456 7b20 8fbf
000002c0: 405e 35d8 e748 81bf 8093 8090 a220 88bf
000002d0: 8001 478a 4e69 51bf a0e3 bea7 f2e2 823f
000002e0: 0040 ab1a 800a 453f 804b 7d49 e19f 713f
000002f0: 40c4 7814 fd4e 723f 80a4 7434 2a30 6fbf
00000300: 8081 fa4f 7fb4 69bf a03e 0063 3aff 723f
00000310: 086a ce18 2733 943f 50c6 d8ce 1d58 a43f
00000320: e82d d37a 2629 b23f 6e72 2a00 bf50 c2bf
00000330: 20be 3d72 67e5 ab3f 440b 4e5b b880 b3bf
00000340: 3c64 2bc3 faee 963f 007f be79 df9d 99bf
00000350: 5823 c196 92a1 973f b0a9 c958 edd0 89bf
00000360: 7455 4cef 8b21 983f a067 2485 b09c 6fbf
00000370: ec3a 4789 7a08 92bf 801a 6907 972d 50bf
00000380: 20af 644b 0724 793f 28de 8bdd e78e 813f
00000390: 00c5 4100 3cb8 6cbf 2013 f875 ab73 6fbf
000003a0: 7861 9116 1899 82bf 7425 9390 b7c4 903f
000003b0: f896 a3b5 373e 8a3f f066 5e8b a6fe 91bf
000003c0: e0cf 0a52 e7c9 6d3f b051 6707 cfa8 743f
000003d0: 58ca 4f75 3aff 813f 4067 a83c 6ca3 7bbf
000003e0: c02c effb 2dab 91bf 20dc 5bfe d603 73bf
000003f0: 208d 73ad e419 8abf 0098 0233 43a0 6bbf
00000400: c041 f43a d962 8e3f 6074 3a98 48cf 78bf
00000410: b86d 863c 7c93 8cbf 0070 a8dc e0f4 27bf
00000420: 0078 42d3 1766 563f 3013 7291 737b 8e3f
00000430: 20b8 b90d 522e 863f 0078 1ecc 57c8 49bf
00000440: e0bc 19db 51fc 79bf 00f3 794c d891 633f
00000450: 3097 ba36 4de7 8c3f b073 b138 6eda 80bf
00000460: c082 8a43 18f8 78bf 4086 1ac1 413c 763f
00000470: 407d 1f67 38e1 793f 90c0 97e3 bd33 803f
00000480: 00c1 c071 afa9 5b3f f0da a1b6 4aa0 833f
00000490: 90ef 1464 51cf 8f3f e02a f3cf 8bf4 903f
000004a0: 0074 a8eb 8abd 4ebf d04e 41f3 49f2 933f
000004b0: f118 560c 9789 b03f 0cbc 65a1 be5f c0bf
000004c0: 3e54 dce6 207e aa3f 65d0 3b71 796b b2bf
000004d0: c004 1a41 b6bc a03f da4d 4104 4367 a0bf
000004e0: f0bc 67ab 365d 8e3f e066 4926 ae0f 6d3f
000004f0: 4029 b2c5 5ee1 793f 2060 85f2 0f05 7bbf
00000500: 2011 669d 5246 6bbf a442 ff01 1052 90bf
00000510: f0e0 fbbc 6f0c 8e3f 0071 f4b3 cb59 4bbf
00000520: c807 dd42 4eae 8dbf 408e b674 fe12 553f
00000530: 74ce 89b8 5966 933f 0038 1c3c f3c7 033f
00000540: a0d3 cf55 2238 623f 0073 b7ef 1968 713f
00000550: 7088 0d0e 240d 7ebf c069 c5b9 9b82 78bf
00000560: a021 e76d b6be 793f a08a 4983 78b8 68bf
00000570: d00d f9d8 c395 763f 2066 304d e1b5 633f
00000580: 207a b05d 2555 65bf 209d d1fa ec24 7d3f
00000590: 20e7 3e9e 873b 8bbf c01b fcb1 c611 71bf
000005a0: b8d8 e5ea 7718 84bf 40d0 b0b5 7429 82bf
000005b0: 0056 5b42 f2b3 243f 40be 4923 f2f1 57bf
000005c0: a808 303c 8217 81bf d0f6 c147 7167 743f
000005d0: 80b6 b9c9 b5a9 5f3f 002c 08a4 6c1f 363f
000005e0: c0cb 5229 ed38 763f 80d3 5d7a 92d9 6dbf
000005f0: 40cd 9980 05d3 873f 00a0 4e5d 24e8 26bf
00000600: 80cc 45df a21b 52bf e098 afa9 cd36 87bf
00000610: 7036 9702 ef7b 85bf 70d5 ba44 966f 94bf
00000620: 005a 2d84 98a8 7d3f 4062 dd23 b46d 9b3f
00000630: 5845 1f7c ab4c a93f 9c2e 7c10 f451 b33f
00000640: 00ff 03f2 e922 ba3f 4ac6 9e3a fdf6 c7bf
00000650: 281e 4dd2 bb29 ac3f 0725 2d40 9f4a b8bf
00000660: 9041 4d5d 06d5 8c3f b08f d464 cf1a 97bf
00000670: 00b5 5da9 609c 933f 80a4 6b3e 4310 67bf
00000680: 5835 fed3 d5f1 903f 80e1 ed5b 3b4c 6c3f
00000690: 0037 933e c5dc 66bf 803c c003 bc45 663f
000006a0: 201f 4a81 1300 7e3f 8051 fee9 d90b 8dbf
000006b0: c840 7a55 92dc 853f 003c 3a5b 9364 31bf
000006c0: a08c 5046 14f0 8cbf 8002 ef4d 633e 793f
000006d0: 781f 0c62 d60c 83bf 0065 c81a a09b 6f3f
000006e0: d89e c4aa 78bd 893f 0865 ba78 1015 87bf
000006f0: 5047 0f4d b7f5 82bf 001d b66b e061 71bf
00000700: 80d4 9cc7 feef 90bf 409c 6a73 ce10 6f3f
00000710: 60d0 765b a852 893f a0e7 2c9d a4a8 783f
00000720: 0048 a40c 9490 433f a012 b10b ce63 713f
00000730: e0d9 040d ebec 75bf 801a 0792 fc79 6e3f
00000740: 10b4 d800 d555 803f 00ec 2cbb 076b 71bf
00000750: 807d e395 e6e5 67bf 7002 9258 9138 91bf
00000760: f0f0 2068 76ba 8cbf 0026 3c30 f13d 85bf
00000770: d078 d4b9 6807 863f d048 a2de b228 8a3f
00000780: 0010 d75d 2da6 4c3f 405a 1510 fefb 8abf
00000790: 38d9 7a8f 966d 98bf 203e a363 218d 81bf
000007a0: 80c4 8e1a f5c8 7c3f 8042 0b59 d742 733f
000007b0: c099 6c61 9ea5 7f3f 88fa a4f7 43ed a23f
000007c0: 488e a922 5957 af3f 70af 4d65 1daa ba3f
000007d0: e66f 5b59 5c58 c33f 80f8 eb3c 01eb d2bf
000007e0: 906a e704 2b12 b63f 94b8 78b6 77a0 bbbf
000007f0: 7045 9d3f 5f42 a83f ac07 eade bbed aebf
