simulation_codes_and_data/red_noise_phi053/deseasonalized/deseasonalized2.5_corr_eco_model_planktivores_sig_2.2phi0.53ppyear50.npy (npy, 64128 bytes, 1 tensors)

array f8 [8000]
000000 6f b9 88 a7 80 38 c6 3f 50 43 06 08 72 a5 c9 bf
       0.17359932117819762 -0.2003614939863163
000010 70 9b 0d 2f bd 66 b8 3f 84 f2 a3 6e 95 2a b9 bf
       0.09531767271765346 -0.09830602599317656
000020 74 dc 42 ea 65 0a aa 3f 28 16 a5 bf 6c 97 a4 bf
       0.05086058125146389 -0.04021777953543576
000030 b8 e6 e2 c2 9d ee 94 3f 40 2f 2d 33 4e 7c 86 bf
       0.02044149877540377 -0.010979281365187554
000040 c0 29 be 1c 27 b2 6d bf c0 89 e0 ac 69 87 78 3f
       -0.0036249889289525494 0.005988514703889114
000050 20 b7 64 a5 be 56 72 3f 00 ed de c8 c7 77 68 bf
       0.004477257453158662 -0.0029868032497383235
000060 20 b7 d4 89 d6 6f 72 bf 00 82 c3 18 47 71 3b 3f
       -0.004501188316948818 0.0004187391830452747
000070 80 2c 02 3e 94 8c 5a 3f 00 ec 0d 8a df 83 4f 3f
       0.0016204307249008398 0.0009617654323926805
000080 a0 40 91 32 94 3a 7d 3f 80 fe 74 4b 1d 0f 57 bf
       0.007135943314168142 -0.0014074121553021846
000090 40 b9 0c 08 81 55 7a bf a0 63 7f c6 18 4f 77 bf
       -0.0064291992464816095 -0.0056906669414837074
0000a0 c0 71 d1 95 95 73 7c 3f 00 24 0f 0e 3a 25 70 bf
       0.006946167294782091 -0.0039417522211318
0000b0 40 80 63 1f 90 6d 6a bf 00 c8 24 4a 40 09 71 3f
       -0.0032260718245283038 0.004159213191359257
0000c0 e0 8b 5f 15 4b 10 7b bf 00 92 3d 91 03 22 3d 3f
       -0.006607335371856288 0.0004445322713222677
0000d0 e0 7e db e4 5d 93 76 bf 00 ee 9d e1 d9 44 53 3f
       -0.005511633656823028 0.0011760833499171452
0000e0 e0 b8 c3 98 31 20 79 3f 00 3c c1 06 16 94 5a 3f
       0.0061342179653662565 0.0016222205258775713
0000f0 c0 6a 3c 39 c9 6d 70 bf 00 ed fb 8b 54 6c 69 3f
       -0.0040109501167317485 0.0031034137062967426
000100 80 9a bc 6e d5 13 71 3f 60 f7 f3 39 8f 77 74 bf
       0.004169305535276835 -0.004996833303492071
000110 00 50 20 64 59 02 6d bf 00 ac 37 9c 1b 5f 31 bf
       -0.0035411592407488257 -0.00026506828382250047
000120 00 08 09 5a 3b 75 56 bf 00 5c 5a c1 74 b5 7a bf
       -0.0013707236868332195 -0.006520706248600128
000130 80 f3 a9 0d 16 46 6d bf 00 57 2b 1c f7 ef 82 3f
       -0.0035734587411852536 0.00924675993648405
000140 00 40 71 ad 64 49 3c 3f 00 27 ea 43 4b d3 7c bf
       0.00043162067362789713 -0.0070374431658224434
000150 00 bb 17 13 1c 92 6c bf 80 26 b7 73 74 d2 73 3f
       -0.00348763926807949 0.00483937729900108
000160 80 b9 0e 3c 85 c5 67 3f 00 7f 65 3d d0 3f 90 3f
       0.0029018022764468188 0.01586842894300755
000170 e0 13 ed b2 73 6a 84 3f b0 b1 a1 83 be bc 91 3f
       0.0099686659792812 0.01732156446853289
000180 c8 6c d0 3f 72 ca a5 3f a0 7b 3e 25 30 f3 b3 3f
       0.042560167589010656 0.07792950543669841
000190 18 0c 9c b0 b4 20 bd 3f 44 a6 81 f2 9d 6f cf bf
       0.11378030120617699 -0.24559377995619702
0001a0 12 c7 f5 e4 8c 8d b2 3f de f9 fd 2f bf 56 bc bf
       0.07247238721700125 -0.11069865152055722
0001b0 44 67 4e bd 26 e4 a7 3f 1a aa 3b 33 ac 3a a6 bf
       0.04666253147952529 -0.04341638684657685
0001c0 f0 06 54 28 16 bf 98 3f 78 a1 af 17 8f 30 92 bf
       0.024166437350692627 -0.017763362713510727
0001d0 40 fa 0d 28 41 e9 8e 3f 00 0d 50 50 5d 95 7e bf
       0.015093335184926393 -0.0074666638438458666
0001e0 a0 a2 20 f8 ea 66 7e 3f 80 45 38 d0 20 10 5e bf
       0.007422368858933354 -0.0018348999445872705
0001f0 00 89 25 44 63 44 81 3f 00 53 e0 9d dd 28 75 3f
       0.00843122054783807 0.0051659256842142565
000200 00 35 09 ce 55 44 50 bf 00 e1 b9 53 0e 2f 70 bf
       -0.0009928548753522226 -0.003951126065310229
000210 60 c2 dd 57 85 63 7d bf 80 ba 70 50 a8 10 6c 3f
       -0.0071749886245560945 0.003425911654196867
000220 00 43 a3 67 14 d0 44 bf 00 2a 65 47 6c ec 74 bf
       -0.0006351565964682615 -0.005108283008960601
000230 00 34 0b 93 fa fb 5f 3f 80 8d 72 0a c5 11 5c bf
       0.0019521662726902367 -0.0017132209993996061
000240 00 23 c8 ec 40 05 54 3f 80 14 a0 3d 7d 3f 63 bf
       0.0012219556839473955 -0.0023496099574936147
000250 f0 33 a0 59 75 27 80 bf c0 e5 a0 19 6b c0 77 bf
       -0.007887760923063397 -0.005798738822755778
000260 00 c0 c7 d7 2a db 46 3f 00 30 76 e3 86 87 35 3f
       0.0006975135034377189 0.000328512603538611
000270 c0 e4 47 ef ae c9 63 3f 80 ca 13 d6 c1 f7 69 3f
       0.002415506047552002 0.0031698976387073974
000280 40 3d 81 87 a7 73 69 bf 00 9f 78 e5 be 86 78 bf
       -0.0031069061333607595 -0.005987878502800248
000290 40 28 9e eb 18 5b 60 bf 00 df 5a d0 43 2e 42 bf
       -0.001996563599225204 -0.0005548316118710594
0002a0 80 10 11 9c fe 1d 5f 3f 00 c8 58 c9 01 12 49 bf
       0.001899241106245092 -0.0007650860522459002
0002b0 00 d2 31 b6 11 00 76 bf 00 01 8a de ff a9 58 3f
       -0.005371159731215602 0.0015053747867171396
0002c0 40 c6 ac e5 db 30 73 3f 00 a3 a6 f9 01 ef 69 3f
       0.004685267422972539 0.0031657255724052424
0002d0 80 cb da 1a a8 19 71 3f 80 43 2c f2 94 60 62 3f
       0.004174858722467145 0.002243319425709378
0002e0 00 f6 c7 32 fc b4 61 3f 00 4f a1 2e 09 08 7c 3f
       0.002161495757035281 0.006843601100701369
0002f0 00 68 05 e7 96 4c 38 3f 00 69 69 f9 3b b0 7e bf
       0.00037077602521196074 -0.007492288851233875
000300 00 df 5e 43 36 cf 7d 3f b0 be 18 83 05 0c 9a 3f
       0.007277690854543328 0.02543648350382338
000310 90 b4 c8 1a f0 0a a8 3f cc 5c e6 f7 e0 33 b2 3f
       0.04695844962075413 0.07110410740129963
000320 28 dd 62 e6 4a 22 bb 3f 2c 7d 15 ec cf ab cd bf
       0.1059920132128026 -0.231805792117464
000330 50 3c e2 6e 9d da b1 3f 92 e1 07 7c 8c 5c ba bf
       0.06974204976198561 -0.10297468212218622
000340 d4 67 d6 13 bd 53 a3 3f b6 65 0a 69 7b 8e a5 bf
       0.03774824969441651 -0.04210267693742813
000350 78 9f 9e a4 26 92 93 3f f0 68 da 2e 6a 7e 90 bf
       0.019112209127029683 -0.016107234105768364
000360 a8 6c 39 5b 1b e5 94 3f 80 61 02 ee f2 a1 82 bf
       0.020405223315134308 -0.00909795559736959
000370 40 60 09 01 9d 6f 77 bf 80 c1 64 31 0d b5 6d 3f
       -0.00572167710978283 0.0036263711619072825
000380 80 6d fb 51 5b 23 67 3f 00 5b 18 02 5e f5 53 3f
       0.002824476585244262 0.0012181680725739663
000390 00 12 94 bd 20 5a 62 3f 80 cb ee 5d 35 90 58 bf
       0.002240241953247457 -0.0014992257272125886
0003a0 80 13 91 6a 7d 06 60 3f a0 cf 3b 33 0c 83 77 3f
       0.0019562196289676925 0.005740211159480341
0003b0 e0 f7 67 c4 09 70 74 bf 40 2d c8 8a 56 62 62 bf
       -0.004989660409135482 -0.0022441568637582565
0003c0 40 5e 2f de 62 94 62 bf 40 ac 1d 08 68 55 6b bf
       -0.0022680216802475617 -0.0033366233700937997
0003d0 80 7e 47 9e bd 0d 5f 3f 80 93 30 4e 29 0e 6f bf
       0.001895365881061567 -0.003790932345071274
0003e0 00 53 58 f5 92 69 61 3f 20 ea ac 0e 0a e7 71 3f
       0.0021255369454230566 0.004370726858548696
0003f0 80 b2 5c 9f af b0 57 bf 00 07 6a ec 38 80 75 bf
       -0.0014459338248783704 -0.0052492354940356645
000400 00 ca d7 a9 58 79 61 bf 00 64 38 34 da 0b 36 3f
       -0.0021330577571856413 0.0003363998150419101
000410 c0 42 74 a2 f2 99 75 3f 00 56 06 46 e7 be 6f 3f
       0.005273769179681309 0.0038752095280851773
000420 00 7c fa d4 8c 4f 49 3f 00 b1 76 9a 8b 4b 4e bf
       0.0007724225669852869 -0.0009245330483529657
000430 a0 c1 da 74 c0 af 7e bf 00 4b 8c 75 0c 6e 73 bf
       -0.007491828711565424 -0.004743622463837083
000440 00 9a a3 f5 36 56 5f bf 80 aa 12 36 95 6a 74 3f
       -0.0019126450266014894 0.004984457832657996
000450 00 90 a8 da 7e 44 3e bf 00 51 0c 72 cd 41 79 3f
       -0.00046184632324952624 0.006166269799696034
000460 40 f5 97 64 77 83 7b 3f e0 dd b8 24 f3 2f 83 3f
       0.006717172983824071 0.009368800695582047
000470 80 4b cb fa a1 49 67 3f 00 bf 0b 01 8a 4e 60 bf
       0.002842728010685247 -0.0019905753509802393
000480 c0 c5 c8 c9 01 1f 79 3f 00 40 f3 d3 05 19 0c 3f
       0.006133086190446446 5.359219584877284e-05
000490 00 7d f6 cc d0 09 66 3f a0 c4 cf 32 f7 83 89 3f
       0.0026902273309158398 0.012458735693117895
0004a0 c0 ed ef 21 fd 17 9e 3f 14 13 aa a6 34 7e af 3f
       0.0293883850062977 0.06150974783398602
0004b0 90 53 d0 07 26 51 b5 3f 9c c2 0c ce 13 25 c8 bf
       0.08326947870985024 -0.1886315113165623
0004c0 b8 61 6e ca df a8 ab 3f d4 c7 62 5c ee 0a b7 bf
       0.05402278276523326 -0.09001054530634117
0004d0 94 65 1a b9 7d 3e a1 3f 8c ff 77 04 e2 d7 9c bf
       0.03367989430007437 -0.028167277834654267
0004e0 00 36 e3 45 21 72 8a 3f 50 c2 55 38 9a 39 78 bf
       0.012912998147295518 -0.005914308950523209
0004f0 80 31 5d e4 86 f1 56 3f c0 4a 65 55 72 95 60 bf
       0.0014003579430720003 -0.0020243866994545667
000500 00 40 be 87 e0 29 51 bf 00 e3 be 77 7c 21 4a 3f
       -0.001047581928080632 0.0007974488976208727
000510 00 58 82 0d c2 6a 11 3f e0 6b 04 bf 93 93 77 3f
       6.644067196001635e-05 0.005755974896852728
000520 c0 85 a0 26 fd 47 66 3f 50 bd 65 0c 48 f4 80 bf
       0.0027198738435038894 -0.008278429869021636
000530 80 dc ab 8f bf cc 67 bf 00 00 32 9a 6c 80 dd be
       -0.002905248778343472 -7.033743176454443e-06
000540 80 ba 71 20 55 3f 51 3f 40 a3 ce 71 7b f7 69 3f
       0.001052697307183742 0.0031697665239857342
000550 00 db 34 3f 4b 8f 51 3f 00 d0 a3 4f 01 5e 04 3f
       0.0010717615921984058 3.884736539019884e-05
000560 80 75 bc 07 0d 98 56 bf c0 8c 1e 49 3b fd 7d bf
       -0.0013790251968609224 -0.0073215785832047575
000570 80 53 62 c3 b0 15 54 bf 00 86 be f1 08 bc 54 bf
       -0.0012258745387374315 -0.001265534147912084
000580 c0 68 e8 5c 71 96 78 3f 00 a4 4f 51 d4 80 69 bf
       0.006002848457251797 -0.0031131884411377264
000590 30 b6 19 0b 72 c4 89 bf 60 45 22 31 bd 1a 72 3f
       -0.012581721271284513 0.004420031577084899
0005a0 e0 17 f0 c0 f9 b0 83 3f 80 e2 29 23 64 78 66 3f
       0.009614897919174525 0.0027429538543482512
0005b0 20 2e e1 6c f1 ba 70 bf a0 1c 49 30 ec b8 77 bf
       -0.0040845328022203475 -0.005791590320377044
0005c0 00 88 59 8d c0 67 65 bf 80 42 90 1d 9a a6 75 bf
       -0.002612949446118229 -0.0052858371864351605
0005d0 00 63 99 9a 46 4d 72 bf c0 89 f7 4d 8d 74 8c 3f
       -0.004468227192398144 0.013894180242407184
0005e0 40 a3 24 a8 1a e0 7b 3f 00 74 11 d4 26 57 5b 3f
       0.00680551922622713 0.0016687277968892023
0005f0 c0 75 50 77 8c 79 75 3f 00 e6 8f 34 37 6f 56 3f
       0.005242870994178472 0.001369289313741695
000600 80 a4 82 7c f8 eb 65 3f 00 32 67 94 b5 fe 42 3f
       0.002675996136606573 0.0005796801204325797
000610 00 7c 00 ec f9 7d 65 3f 00 11 1a 62 9f 71 57 3f
       0.002623546723057313 0.0014308983303701894
000620 80 3a b0 f0 05 33 6d 3f 20 32 e1 b5 9d 9a 90 3f
       0.0035643688220326486 0.016214813448003906
000630 58 2f 07 26 2e a6 a6 3f 18 40 8e 33 b3 8f b2 3f
       0.044236604826066894 0.07250518807109108
000640 7c 19 96 69 4b 43 bc 3f fc c6 84 9e eb 8f cd bf
       0.11040183379927798 -0.2309546016709233
000650 ac 5e c8 f6 d5 5d b2 3f ee f1 16 51 af 6f bb bf
       0.07174432063072328 -0.10717292527892372
000660 30 16 d6 38 0d 3c a3 3f d8 0a f4 cd ae 04 a4 bf
       0.03756753271867941 -0.03909822715833905
000670 00 24 df eb 21 a4 94 3f 70 d5 99 94 a9 ce 80 bf
       0.020157365819418516 -0.008206677291336034
000680 80 44 ec 80 61 3c 5c 3f c0 f5 86 c0 b9 7a 61 3f
       0.001723380297054683 0.0021337154359730437
000690 80 5c 91 fc aa ca 6c 3f a0 16 4f 24 74 d2 72 3f
       0.0035146083433051367 0.004595235518484536
0006a0 00 f6 66 0f cd c1 78 bf 80 3d da eb 74 d1 5c bf
       -0.006044198051708971 -0.0017589227494772819
0006b0 a0 32 8f b3 21 8b 77 3f c0 87 52 4d ed 6a 62 3f
       0.005747920652492994 0.0022482523732642867
0006c0 80 8d fa 62 83 4e 7e bf 00 e7 b5 61 ab 03 44 bf
       -0.007399094800038752 -0.000610788996183248
0006d0 00 07 86 44 58 58 70 bf 00 62 ba 06 e1 a8 50 bf
       -0.003990502162538823 -0.001016826393344883
0006e0 c0 1b e9 91 cf e6 65 3f 40 76 87 97 c6 83 75 bf
       0.0026735357380718028 -0.005252624272967632
0006f0 c0 d7 4a 44 0b 33 65 bf e0 3f 76 89 e5 6a 75 bf
       -0.0025878162435572782 -0.005228897694351503
000700 c0 a7 1a 02 a8 02 68 bf a0 50 be 32 07 ea 86 bf
       -0.0029309541140109807 -0.01118856071097013
000710 00 14 29 13 39 af 73 3f b0 bc 99 c9 b5 73 85 3f
       0.0048057775007395165 0.010474605765209283
000720 40 e9 00 86 95 c6 60 3f 00 df c6 39 92 01 44 3f
       0.0020478172664556704 0.0006105388634329578
000730 60 df fc dd 00 29 73 bf 40 51 e2 48 1d 9b 71 bf
       -0.0046777757523200625 -0.004298319238064174
000740 e0 86 e2 c2 20 76 88 bf 80 ff 80 3f 8d cc 69 3f
       -0.011944061229147207 0.0031492956877911538
000750 00 3a a0 da 05 cb 71 3f c0 0d 31 43 17 e5 73 3f
       0.0043440083191073064 0.004857149952900597
000760 40 0f 59 cc 33 6d 7c 3f 40 d1 ff 56 c5 c9 7e 3f
       0.00694008096394666 0.0075166424357926975
000770 c0 b3 0b d8 49 9f 73 3f 00 fe ae d6 4e 67 62 bf
       0.004790581181379261 -0.0022465267006450684
000780 00 18 92 af 00 1e 4c bf 00 73 19 18 21 36 73 3f
       -0.0008580687855477276 0.004690293573358373
000790 00 77 87 95 6e bf 57 3f 40 0d 39 fd 4d f2 81 bf
       0.0014494495318255196 -0.008762940683601728
0007a0 e0 30 38 09 e9 f4 85 bf 00 d8 b4 a8 fd 1f 73 bf
       -0.010721035570007975 -0.00466918073225564
0007b0 c0 84 e1 d1 ce 4e 82 3f 70 e0 4d 63 5c c5 9d 3f
       0.008939376621301398 0.029073184548423503
0007c0 70 d6 34 65 2f 98 a9 3f 90 99 13 6b 02 99 b4 3f
       0.049989205459877506 0.08045973886655688
0007d0 38 52 81 51 e8 39 bd 3f fe cb 0e 9e c8 f7 cc bf
       0.11416484823104944 -0.22631175725618385
0007e0 a6 bb 9d 77 ad e5 b1 3f c8 28 08 34 e2 cf b9 bf
       0.06991085214916257 -0.10082830210027105
0007f0 d0 cb 85 c9 4e 90 9c 3f f6 cc 97 fa 8f 93 a1 bf
       0.027894240426984684 -0.03432893690105658
