simulation_codes_and_data/pink_noise_phi053/deseasonalized/deseasonalized2.5_corr_eco_model_planktivores_sig_0.1phi0.53ppyear50.npy (npy, 64128 bytes, 1 tensors)

array f8 [8000]
00000000: 4128 0d1a ee34 c33f 5453 1760 79f6 c5bf
00000010: 3291 c544 ddcd b53f 4cf8 03cb 878e b7bf
00000020: 1825 e285 fb38 a83f c260 1886 8dde a3bf
00000030: a836 b3c4 8fa7 953f 5013 cc08 b095 8cbf
00000040: a05d 3bc5 2319 7f3f 0052 fad9 cc54 72bf
00000050: 0002 9a5c a28b 5d3f 8008 9339 2eb6 53bf
00000060: 00b0 43bb 187b 1b3f 0004 54eb 8afa 26bf
00000070: 007e fcab 804e 30bf 00f8 b84f 476b 2abf
00000080: 006c 1955 3ae2 213f 0003 a415 306d 42bf
00000090: 0080 850c cdac 3cbf 0084 80ff 8655 33bf
000000a0: 00b4 0bac 4b5f 36bf 0010 bc84 6526 19bf
000000b0: 00f0 5215 627b 0cbf 0000 fb18 4835 193f
000000c0: 0082 81c5 783f 33bf 0080 da8d ff52 0c3f
000000d0: 00f0 1b1f 0862 1d3f 00d0 3fed d3be 16bf
000000e0: 0098 6aac 2870 45bf 0081 e830 da05 47bf
000000f0: 002a c91c d9bb 44bf 0046 1cb5 b13f 3ebf
00000100: 0050 6cf1 df2a 38bf 0048 2599 4651 2fbf
00000110: 00c0 c357 4121 29bf 0020 6bd7 4b01 133f
00000120: 00a0 6498 05dd 20bf 002c a942 f2e3 2abf
00000130: 001c 7e02 9c4c 32bf 00c6 65f2 cdb3 36bf
00000140: 0054 a572 2d99 2cbf 0084 a6e5 e79e 37bf
00000150: 00f0 4eae 4721 3abf 00bc faa0 ef48 383f
00000160: 00c6 b076 c313 4c3f 80e5 a9df 5648 6b3f
00000170: 403b e597 731f 823f 2032 31a7 5269 943f
00000180: 38c4 a90e 6f8e a33f 9429 5577 907b b03f
00000190: fa13 9ca8 f5a3 b83f 12fe c268 2d8d cabf
000001a0: 1ed8 75fa de57 b13f b232 15cd a2a7 b9bf
000001b0: c07f d677 2b99 a63f 9418 539a cb7e a4bf
000001c0: b013 6074 8b55 953f 000d c421 3111 8dbf
000001d0: e069 10a1 bc5c 7e3f 60e7 4896 6434 70bf
000001e0: 8047 1350 4016 603f 8051 cb21 9bb8 50bf
000001f0: 0090 5f4f 76b6 293f 0052 14cb b9eb 3dbf
00000200: 0080 0e7b 92cc 0c3f 0086 15b0 26a6 32bf
00000210: 00c0 dc3d e01c fc3e 0040 df35 fea9 23bf
00000220: 000c d8e1 2060 243f 0028 0640 1743 31bf
00000230: 004a 6d2b 7429 36bf 004d 4a85 f4ba 41bf
00000240: 0025 625e f274 49bf 00dc 2732 c66f 31bf
00000250: 0050 a742 f346 30bf 0020 161e fbda 27bf
00000260: 00ec 90d7 5bfa 2fbf 0034 0183 21d2 263f
00000270: 00b8 a857 0031 16bf 006c e450 a981 34bf
00000280: 0080 351b 4420 42bf 0084 3f4b 5df7 3dbf
00000290: 00d2 c859 11b6 3cbf 0076 b2b1 479e 3dbf
000002a0: 0000 71f5 5b47 1bbf 00f8 0191 b9e6 14bf
000002b0: 00e0 2dcd ca63 2dbf 00e8 2278 024a 31bf
000002c0: 0048 d1f5 0e2b 24bf 00a8 b307 f399 26bf
000002d0: 00e0 f05d 031d 47bf 0040 d0e7 5893 41bf
000002e0: 0058 3b49 5c29 2cbf 008c 24f1 bd0a 3c3f
000002f0: 00d3 04d1 896f 563f 0033 23b5 bdf6 6c3f
00000300: 6090 77f9 047b 823f 300a f028 fb9b 943f
00000310: 90d9 6c83 fce0 a33f 90d8 1073 5fa9 b03f
00000320: 781f 8606 68dd b83f 7ebe 532e 1ec0 cabf
00000330: 00d5 e463 0a3a b13f d208 c78b f1b7 b9bf
00000340: b0e5 e3a2 0b11 a63f 646a 3392 c4f2 a3bf
00000350: e823 f4ee 35af 943f 8045 af35 0b55 8bbf
00000360: 6041 c927 4a86 7b3f 40ca 37f7 1ef4 6fbf
00000370: 804e 5120 ade9 543f 003a 3368 f7fb 46bf
00000380: 00a0 3931 fe53 193f 00e0 2477 586a 2abf
00000390: 0080 e9de 768e 0b3f 009c 424d d73d 2fbf
000003a0: 00c0 7809 80fd 13bf 00c8 c947 0408 36bf
000003b0: 0088 18a9 9db9 29bf 00da e611 b6ba 36bf
000003c0: 00f0 1db7 150b 3abf 0003 16d1 cea9 42bf
000003d0: 00b8 9ecd e2f7 3abf 00a9 b039 47a2 40bf
000003e0: 0008 67c8 d294 13bf 0058 477b d80e 2abf
000003f0: 00b8 adfd 09dc 2abf 0000 53c6 63ae 27bf
00000400: 006c f32d f467 29bf 0048 b476 16a2 39bf
00000410: 00e2 4ef0 0cf2 3cbf 00ca 31af e9ca 32bf
00000420: 00b8 8f26 aaf2 133f 0098 7591 d60e 1d3f
00000430: 0092 3c4a d604 34bf 0045 a18c 3552 42bf
00000440: 001a 054b 1878 42bf 00dc b352 7860 23bf
00000450: 0000 64c6 e1d0 a13e 0000 9107 45a2 c6be
00000460: 0070 f156 4a90 32bf 007e 91a6 6e33 44bf
00000470: 00b8 4d0c 370f 2ebf 00e0 3e2e c905 1a3f
00000480: 00b0 65c1 9624 4d3f 8058 ebb8 03a5 6a3f
00000490: e00c beef d64d 823f f0e5 8719 a6b2 943f
000004a0: 7030 d51f c143 a43f 4cea 87d8 662c b13f
000004b0: fc25 3aba 87ad b93f 4e8c 4ff4 de43 cbbf
000004c0: 4c42 f293 0e2e b13f d459 a76e afb0 b9bf
000004d0: 7482 e039 9479 a53f caf8 2fa6 76cd a3bf
000004e0: 1092 8a41 2abb 933f a8da f12c da0f 8abf
000004f0: 40ce c627 41f4 793f c0ca f286 abb0 6bbf
00000500: 806c e840 f0eb 513f 00c2 94b9 ec57 50bf
00000510: 00f4 353e c433 303f 004c a327 bc2b 32bf
00000520: 00c0 befc 20a5 e8be 0064 dd88 6fdd 37bf
00000530: 0020 7914 858d f8be 0011 cb82 a1b3 40bf
00000540: 0008 7e10 7878 2bbf 00e0 9333 60fc 11bf
00000550: 0050 26b4 465b 1dbf 009a e546 1550 32bf
00000560: 003c 4a12 1a38 21bf 00cc c3ad 6a60 36bf
00000570: 0094 b3b6 7ec9 27bf 00e4 df32 c048 36bf
00000580: 00d6 2c8e 972e 3ebf 0000 1ccf 8ed6 1dbf
00000590: 000c 1360 93e9 29bf 005f ea3f 6587 42bf
000005a0: 000b 5271 4b61 43bf 00b2 f5d3 a304 38bf
000005b0: 00e6 15fa 1280 37bf 00f0 f4c8 fc71 19bf
000005c0: 0038 d00f 28e8 283f 0098 4828 78d7 24bf
000005d0: 0058 32c0 da64 24bf 00a6 e400 0fbd 3dbf
000005e0: 0026 ea87 9447 34bf 0020 cca3 6cf6 25bf
000005f0: 0088 3ede 4dd0 38bf 00d8 673e e29f 42bf
00000600: 0070 011b 0626 3cbf 00e8 f766 c597 2a3f
00000610: 00df 2412 8172 533f 803b 1a07 aed2 6e3f
00000620: 0093 6038 2405 843f d038 5f5d 1f82 953f
00000630: 581d c2ca 8597 a43f 7809 38ff 9073 b13f
00000640: ca5d 52c2 ed23 ba3f 76b2 efc4 1aba cbbf
00000650: b4cb af25 c4cd b03f 5629 1523 3797 b9bf
00000660: 88ed 48e8 94c3 a43f 5c7d ed87 05e7 a2bf
00000670: e891 dc0b b33e 923f 40f7 9537 61cb 87bf
00000680: a0d1 e180 51a0 763f 4019 7c19 3d40 6abf
00000690: 8021 8f9f fa82 523f 008b c5af 7f53 4ebf
000006a0: 0038 fab9 92d8 30bf 00fe 1cbd fb94 43bf
000006b0: 00b0 bbb5 bfa2 033f 00e0 c99d ff90 f0be
000006c0: 00c0 ec75 806a 013f 00c8 06d1 682a 13bf
000006d0: 000e ca47 e612 32bf 0018 b56d dca5 14bf
000006e0: 0048 201f e215 2bbf 00ac e8a5 1cd7 37bf
000006f0: 005a e219 6d03 30bf 00df c1ed 5335 45bf
00000700: 006c 7175 884a 24bf 00b4 cfc2 3a11 28bf
00000710: 00c0 03e2 755a 2bbf 0042 714c a9d0 39bf
00000720: 0050 c99b 8c9e 08bf 007c e5a8 df43 28bf
00000730: 000c 47a2 c3c1 41bf 002e 5422 9054 35bf
00000740: 00f8 7670 d08c 28bf 0060 5894 7bca 0b3f
00000750: 0078 c79f 5155 2cbf 0018 6137 022d 36bf
00000760: 00d6 0697 00b0 44bf 00ba 3c43 ad3e 4dbf
00000770: 00d0 2e61 aa46 38bf 0080 5a7d f595 04bf
00000780: 0098 5a28 5e3c 24bf 002c 03bc 9142 39bf
00000790: 006c 02f9 8377 32bf 00b4 54dc 7d35 31bf
000007a0: 0064 3f77 3a48 453f 804f 72af 3d27 6b3f
000007b0: 20fa 9f8d a50e 843f 10cc fccf 4a83 963f
000007c0: d03d 902b 1f57 a53f be0b 059c 9ef2 b13f
000007d0: bcaf de37 09ea ba3f 4a8b fc71 b22f ccbf
000007e0: 5ced e9c1 cc82 b03f a83d 121a 0f6f b9bf
000007f0: fc42 9694 cda7 a33f 5a0a a9e1 e711 a2bf
0.15005279800453944 -0.17158429328869806 0.08517249039647792 -0.09201859194215095 0.04730974206274591 -0.0388073183241331 0.021147009258860067 -0.013957381504505456
0.007592334488172453 -0.004475403023793678 0.0018033109248848378 -0.0012031032004391762 0.00010483110856157607 -0.00017531343261370513 -0.0002488197460354946 -0.00020156140804944433
0.00013644182267821825 -0.0005623326099169768 -0.00043754583432153993 -0.000295014818677386 -0.0003413734194016027 -9.593958492010168e-05 -5.432503773181163e-05 9.616138981538569e-05
-0.0002937002041161485 5.402414693134183e-05 0.0001120870072348068 -8.676689623127176e-05 -0.0006542395211297514 -0.000702601946446918 -0.0006327448005064018 -0.0004615601402387648
-0.00036876647338712765 -0.0002389334372972507 -0.00019172594682670407 7.249856376312369e-05 -0.00012865727712463304 -0.00020515758781622373 -0.0002792244799753596 -0.0003464105415310337
-0.00021818809302467934 -0.0003604236750565648 -0.00039871215841080776 0.00037055826485760113 0.0008568481838492903 0.0033303925277407553 0.00884905154512483 0.019933024839973723
0.0381960587882379 0.06438544190783652 0.09625182501265775 -0.2074333917171179 0.06774705519441723 -0.10021417147545256 0.04413734281411008 -0.04002987154812945
0.020834139802918095 -0.01419294723792186 0.007412659485476841 -0.003956215780414357 0.0019637352093945792 -0.0010205759964963812 0.00019617265905857995 -0.0004565552327034095
5.492994330968948e-05 -0.0002845615818697078 2.6810452133207985e-05 -0.0001500246825671958 0.0001554527415664475 -0.0002633983385967875 -0.0003381641976619998 -0.0005410856197890779
-0.0007768805924267819 -0.00026606167571635586 -0.00024836958860174896 -0.00018200221442676856 -0.00024397250288807348 0.00017410906866857645 -8.465351667361065e-05 -0.00031290420237589656
-0.0005531628179760162 -0.00045724895175963676 -0.00043809817887854874 -0.00045193910927729397 -0.00010406016132069595 -7.973201377528549e-05 -0.00022422648052233818 -0.00026381073270054234
-0.00015387113208703562 -0.0001724347274383864 -0.0007053629341333689 -0.0005363639935485054 -0.00021485568560447588 0.0004278863645074682 0.0013693662513791227 0.0035356240487999235
0.009023703444604958 0.020126270650516698 0.03882588486014804 0.06508442458366148 0.09712839278483709 -0.2089879728514354 0.067291879070428 -0.10046300566230862
0.043098796495495306 -0.03896154675176858 0.020199625691962014 -0.013345801902604704 0.006719865483845261 -0.0039005856322032184 0.0012764158903068312 -0.0007014234583040957
9.661902395807775e-05 -0.0002015336027143544 5.255985512486738e-05 -0.00023835423656246024 -7.6256694563126e-05 -0.0003361711931467726 -0.00019626664702437902 -0.0003468222147619271
-0.0003973892227049358 -0.0005695590827344554 -0.0004115036696202834 -0.0005076263217962673 -7.46968890786015e-05 -0.00019880669209609847 -0.00020492193183535568 -0.00018067329361848294
-0.0001938329287217433 -0.00039113090925113614 -0.00044167343031234485 -0.00028675275024805935 7.609523312598898e-05 0.00011084732647290152 -0.0003054640931046404 -0.0005591165038457968
-0.0005636328333274432 -0.00014783352649036519 5.309565380973158e-07 -2.698167062692436e-06 -0.0002832585805145893 -0.0006164827619947189 -0.00022933527921104035 9.926834496709613e-05
0.0008893715010294123 0.0032525131895040915 0.008937529746396 0.020212741192130623 0.03957942498763678 0.0670837668075503 0.10030411049424254 -0.21300875596270646
0.06710902320833972 -0.10035225345141124 0.04194319921976311 -0.038676936899706485 0.019268665552447273 -0.012725548264126488 0.0063364548808980126 -0.0033801412715431522
0.0010938497758903598 -0.0009975253836495002 0.0002472261532700526 -0.00027726501106178914 -1.1751668260590042e-05 -0.00036415074361212385 -2.3415386094322033e-05 -0.0005096949222083424
-0.00020958390836872676 -6.861054579931913e-05 -0.000111986341869319 -0.0002794315286308857 -0.0001313716722006475 -0.00034144024335985845 -0.00018148109243223964 -0.00034002964355256404
-0.0004605407722693966 -0.00011382338177767792 -0.0001976959611394713 -0.0005654568083910128 -0.0005914324161867268 -0.0003664875002502843 -0.0003585859613718101 -9.706597687836327e-05
0.00019002427134789945 -0.00015900937809582016 -0.00015559358880484764 -0.00045377365394702607 -0.0003094422935779606 -0.0001675613038047974 -0.000378626833702822 -0.000568376036254703
-0.00042951249179679074 0.00020288738913604165 0.0011869678933872918 0.003762569330155896 0.009775431604859275 0.021004190515491683 0.040218525887264434 0.06816965323381463
0.10211072916205591 -0.21661696067839714 0.06563974304280756 -0.09996361357221892 0.04055466971882554 -0.03691880497239694 0.017817304228758518 -0.011618384846538654
0.00552398526462064 -0.0032044595099051387 0.0011298606388994992 -0.0009254811734929758 -0.00025704939069093324 -0.000597594184206629 3.745219757242402e-05 -1.5798950573103765e-05
3.321842699788302e-05 -7.311119794087273e-05 -0.0002757847030709637 -7.876546753946001e-05 -0.00020664582513113539 -0.00036377381721547364 -0.0002443448410160143 -0.0006472263153360636
-0.0001548091483723757 -0.00018361894890919772 -0.00020868958473085897 -0.00039390691057852867 -4.6957651168938463e-05 -0.00018512826177194408 -0.0005418973201404276 -0.00032547491930820516
-0.0001873020594142516 5.300702700256066e-05 -0.00021616574657817855 -0.0003383760844183348 -0.0006313326721769097 -0.0008924814232836309 -0.000370422932230996 -3.926425385469834e-05
-0.0001543869913593343 -0.0003854375645572783 -0.0002817818831403751 -0.0002625877644558128 0.0006494794347374766 0.0033146099845655086 0.009793561348485247 0.02198521513419044
0.04168031126766503 0.07010833081316911 0.10513360609064554 -0.22020559850451554 0.06449584707472894 -0.09935087572579582 0.03838961066060695 -0.03529286031382091
